training/artifacts/checkpoints/smallresnet/best.pt (torch, 984930 bytes, 105 tensors)

conv1.weight f4 [16, 3, 3, 3]
-0.07702087 0.17450523 -0.03383434 -0.1718228 -0.025040383 -0.09688892 -0.11889081 0.062509276
-0.09603336 -0.15493168 0.015440281 -0.18955946 0.03574957 0.14008115 0.14702004 -0.09771384
-0.06493696 -0.1350532 0.0671174 -0.002393624 -0.023402512 -0.112963684 -0.15776706 0.061282843
-0.06964344 -0.05215149 -0.070962444 -0.04782793 0.020999238 0.013085963 0.1481879 -0.13559097
0.068308845 -0.15374154 0.12404888 -0.088012666 0.16710639 0.1457634 -0.0978727 0.18378092
0.08778575 0.120874606 -0.08965297 0.07294284 -0.107001 -0.1739734 -0.061821323 -0.00022291685
-0.04654534 0.11153519 0.08631829 -0.107138455 0.087567 0.18484518 0.06304389 0.0052814605
0.058512975 0.084305234 0.1269612 0.18704696 -0.08994887 -0.08537243 0.033480372 -0.11623235
0.04890634 -0.16841443 -0.11248666 0.13001005 -0.17290805 0.05115402 -0.14447603 -0.13527492
0.071047455 -0.19077063 -0.11906725 0.06195761 -0.1364735 -0.06029183 0.110956535 0.11876952
-0.0079959985 0.010038215 0.1551838 -0.058273934 0.056008123 -0.17781661 0.07352491 -0.16291271
-0.15821114 0.026942853 0.18647264 0.11137656 -0.116580434 0.07326373 -0.15163538 -0.08547759
-0.087899685 0.04531861 -0.087647244 0.02050729 -0.17653207 -0.15864748 0.14100951 -0.15541425
-0.09445455 0.033741795 0.19225015 0.051260676 -0.11531642 0.16219975 -0.1748774 -0.06552645
0.114590265 -0.079668544 -0.16265358 0.008592837 -0.021912126 -0.06929264 0.115228556 0.10972682
0.006061282 -0.17708908 0.14308105 0.022072848 -0.043993574 -0.042191055 0.022202058 0.035281375
0.036075234 0.07273334 -0.01943464 -0.04245526 -0.14624567 0.09874968 -0.17712693 0.03050277
0.13623405 0.13424799 -0.055900067 0.15636362 0.026965393 -0.07099427 -0.07833978 0.15382431
0.012247743 0.12510967 0.06846806 -0.057586856 0.054203823 0.09538007 -0.06907365 0.009966888
0.01917044 0.16893382 0.037883412 0.09074872 0.1757198 0.12635097 -0.1668452 -0.13719265
0.115746304 -0.19145188 0.0055098836 0.18951748 0.044293985 0.004347402 0.09905765 -0.058497965
-0.015713725 0.105368875 -0.1869431 -0.12516557 0.0776674 -0.04796557 -0.07823741 -0.06973578
-0.07328477 0.02175126 0.09489086 -0.09675453 -0.05699703 -0.10319549 0.15566742 -0.048675906
0.026776535 0.045194123 0.16219825 -0.077218845 -0.18538257 -0.007517117 0.028773531 0.04926357
-0.044753596 -0.1357781 -0.007998157 -0.059477836 0.18439165 0.1375215 0.15527588 -0.14668041
-0.11928579 0.08304749 -0.19089456 -0.09966225 0.03953898 0.18863906 -0.06345328 -0.19200294
-0.04889566 0.11857124 0.007681822 -0.10613912 0.14882867 -0.036504325 0.031572703 -0.1314734
0.16827591 0.15538082 0.043039873 -0.020170234 -0.14960918 -0.1521229 -0.07431376 0.07920461
-0.062346987 -0.07646649 0.18770745 0.008673714 -0.17569372 -0.10453247 0.16305235 0.17240609
-0.079602934 -0.14483146 -0.043997716 -0.028550338 0.007942513 0.1917482 -0.1376411 0.11117274
-0.0075854375 -0.08175399 0.121753804 -0.11888983 0.16574962 0.06566154 -0.08067495 0.063949704
-0.059005234 0.17810321 -0.18332365 -0.14820786 0.07219831 -0.09312335 0.14811388 -0.015006974
00000000: 1ebd 9dbd 80b1 323e e095 0abd 51f2 2fbe
00000010: 7d21 cdbc b36d c6bd 067d f3bd dd04 803d
00000020: 23ad c4bd 69a6 1ebe 3bf9 7c3c e01b 42be
00000030: 246e 123d 6f71 0f3e 6c8c 163e 321e c8bd
00000040: abfd 84bd 634b 0abe d974 893d 59de 1cbb
00000050: a0b6 bfbc 8159 e7bd b08d 21be b803 7b3d
00000060: 38a1 8ebd cd9c 55bd c254 91bd 38e7 43bd
00000070: 9806 ac3c 8266 563c 92be 173e 5cd8 0abe
00000080: 82e5 8b3d 6c6e 1dbe 570d fe3d fc3f b4bd
00000090: f01d 2b3e 0043 153e 7b71 c8bd 1131 3c3e
000000a0: 04c9 b33d 1b8d f73d fa9b b7bd 0e63 953d
000000b0: 5723 dbbd 1526 32be 5b38 7dbd c9be 69b9
000000c0: 54a6 3ebd 906c e43d a5c7 b03d 686b dbbd
000000d0: 5456 b33d 0e48 3d3e 281d 813d 1a10 ad3b
000000e0: 4dab 6f3d 39a8 ac3d 1e02 023e 3d89 3f3e
000000f0: 1d37 b8bd bed7 aebd b722 093d 3a0b eebd
00000100: 0452 483d d574 2cbe 685f e6bd 5b21 053e
00000110: cf0e 31be e186 513d 86f1 13be 8285 0abe
00000120: 5481 913d 6059 43be 88d9 f3bd 43c7 7d3d
00000130: b6bf 0bbe 91f4 76bd 2e3d e33d 6f3d f33d
00000140: a601 03bc 5377 243c 81e8 1e3e a6b0 6ebd
00000150: c668 653d 8f15 36be 3a94 963d 97d2 26be
00000160: 1a02 22be 42b7 dc3c aff2 3e3e 6519 e43d
00000170: b9c1 eebd 4b0b 963d 4e46 1bbe e00e afbd
00000180: c004 b4bd 02a0 393d 6680 b3bd e7fe a73c
00000190: d3c4 34be 7c74 22be cc64 103e ea24 1fbe
000001a0: 6371 c1bd d634 0a3d 39dd 443e b7f6 513d
000001b0: 042b ecbd b117 263e 1013 33be bb32 86bd
000001c0: 4dae ea3d 4329 a3bd a98e 26be f8c8 0c3c
000001d0: 0f81 b3bc 4de9 8dbd f3fc eb3d 74b8 e03d
000001e0: b89d c63b d756 35be d783 123e 1ed2 b43c
000001f0: 9b32 34bd 87d0 2cbd 17e1 b53c 3483 103d
00000200: a0c3 133d 38f5 943d 6535 9fbc 91e5 2dbd
00000210: 6dc1 15be 463d ca3d c360 35be f2e0 f93c
00000220: f080 0b3e 4e78 093e 78f7 64bd c91d 203e
00000230: 87e6 dc3c 7265 91bd 9b70 a0bd 1f84 1d3e
00000240: c2aa 483c c01c 003e fb38 8c3d 32e0 6bbd
00000250: d404 5e3d a056 c33d 7c76 8dbd 294c 233c
00000260: 540b 9d3c fdfc 2c3e a32b 1b3d 77da b93d
00000270: e4ef 333e 2662 013e 78d9 2abe 3b7c 0cbe
00000280: 660c ed3d f60b 44be 418c b43b df10 423e
00000290: 9c6d 353d a774 8e3b bdde ca3d 909b 6fbd
000002a0: 12ba 80bc a3cb d73d 036e 3fbe 672b 00be
000002b0: 1610 9f3d 8c77 44bd ef3a a0bd a2d1 8ebd
000002c0: 5316 96bd b32f b23c 2456 c23d 3d27 c6bd
000002d0: b875 69bd 2858 d3bd 4867 1f3e 6360 47bd
000002e0: 775a db3c 791d 393d 4c17 263e ea24 9ebd
000002f0: eed4 3dbe 2652 f6bb 78b6 eb3c 99c8 493d
00000300: 8c4f 37bd 6a09 0bbe b40a 03bc 089f 73bd
00000310: 2ad1 3c3e 70d2 0c3e a400 1f3e 6433 16be
00000320: 1c4c f4bd cd14 aa3d dd79 43be b91b ccbd
00000330: a0f3 213d 992a 413e cbf3 81bd 6b9c 44be
00000340: d146 48bd 7ad5 f23d cbb7 fb3b 785f d9bd
00000350: 8b66 183e 8f85 15bd 6152 013d f7a0 06be
00000360: 8550 2c3e 261c 1f3e 944a 303d 0c3c a5bc
00000370: 2633 19be 1bc6 1bbe d031 98bd 0736 a23d
00000380: 8e5f 7fbd 779a 9cbd 6236 403e 311c 0e3c
00000390: 0ee9 33be 1f15 d6bd 32f7 263e 398b 303e
000003a0: dd06 a3bd b34e 14be f336 34bd 66e2 e9bc
000003b0: 5021 023c a459 443e caf1 0cbe 89ae e33d
000003c0: 438f f8bb a36e a7bd 0f5a f93d 837c f3bd
000003d0: 45ba 293e 8f79 863d e838 a5bd 10f8 823d
000003e0: 79af 71bd b060 363e 32b9 3bbe cdc3 17be
000003f0: b5dc 933d 74b7 bebd 2aab 173e d0df 75bc

bn1.weight f4 [16]
1.0000046 1.0058717 1.0032437 0.9975356 1.0002227 0.9996847 0.99508107 0.9988192
0.99728566 0.99888104 0.9999272 0.99919915 1.0001444 0.99676484 1.0026071 1.0039005
00000000: 2700 803f 67c0 803f 4a6a 803f 7e5e 7f3f
00000010: 4c07 803f 56eb 7f3f a2bd 7e3f 9db2 7f3f
00000020: 1d4e 7f3f abb6 7f3f 3bfb 7f3f 84cb 7f3f
00000030: bb04 803f fb2b 7f3f 6e55 803f d07f 803f

bn1.bias f4 [16]
-0.0022402476 0.0035061962 0.002422243 -0.0012262169 0.000118285665 -0.0008449554 -0.00645982 -0.0018256267
0.0016345654 -0.0018032881 -0.00024078411 0.0027283404 0.0021770631 0.002147252 0.0012775965 -0.00053162547
00000000: 1ed1 12bb 36c8 653b 7ebe 1e3b 03b9 a0ba
00000010: 2210 f838 ff7f 5dba e6ac d3bb de49 efba
00000020: ea3e d63a 4f5c ecba fe7a 7cb9 f5cd 323b
00000030: 0fad 0e3b e9b8 0c3b 0675 a73a c85c 0bba

bn1.running_mean f4 [16]
-0.1357482 0.06989477 -0.07916927 -0.059079997 -0.039869748 0.10425325 -0.039270446 -0.05214268
0.020725474 -0.15402223 -0.022380846 0.027065827 0.01888729 0.017087376 0.058499534 0.1572334
00000000: 9301 0bbe fd24 8f3d 8023 a2bd defd 71bd
00000010: 764e 23bd ba82 d53d 0cda 20bd 9093 55bd
00000020: 78c8 a93c 01b8 1dbe 0958 b7bc 27b9 dd3c
00000030: 85b9 9a3c d3fa 8b3c 359d 6f3d cb01 213e

bn1.running_var f4 [16]
1.435951 0.43761083 0.49648416 0.34560272 0.25119093 1.1459941 0.12199875 0.12808909
0.023476953 1.0124372 0.14163037 0.2256757 0.035660688 0.5632128 0.27152377 1.1351094
00000000: 3ecd b73f 870e e03e 2c33 fe3e d7f2 b03e
00000010: 199c 803e efaf 923f 7bda f93d c929 033e
00000020: bd52 c03c 8b97 813f 8d07 113e 8817 673e
00000030: f110 123d b72e 103f 2a05 8b3e 444b 913f

layer1.0.conv1.weight f4 [16, 16, 3, 3]
0.049075898 -0.05725299 0.0044433824 -0.06592967 0.08086824 0.06024091 -0.07314228 0.02911084
-0.08155917 0.032184873 -0.010351683 -0.050782748 0.07074051 -0.079091266 0.046996027 0.032300774
0.081619486 -0.0064993054 -0.052785736 -0.043203477 -0.004766771 0.06667266 0.056188677 -0.064843185
0.07447122 0.015030363 0.041397087 -0.014199507 -0.0491005 -0.008840537 -0.079372205 0.052536484
0.04320792 0.060392223 0.077648595 0.02687954 0.022321036 0.0012202442 0.042809423 -0.021533206
-0.012810296 -0.079695806 0.06583764 -0.02229483 -0.07249076 -0.020177195 0.05657491 0.04765089
0.02795063 -0.07202207 -0.06746674 0.054080423 0.029363785 -0.030055285 0.00973468 0.026973812
-0.06845004 -0.05647479 -0.023288071 0.053652603 -0.080042996 -0.0024412998 0.044408087 -0.00834661
0.08077196 -0.04196155 0.073594555 -0.027921338 0.012998641 -0.04677707 0.0033200548 0.070462435
0.014473035 0.03179599 0.014321142 -0.019888386 0.07751649 -0.042379156 0.019655636 -0.008044549
-0.04586803 0.0062472867 -0.056484204 0.040881068 -0.07454725 0.033173222 -0.0019098187 -0.029695699
0.072497085 -0.03691051 0.027259162 -0.025691802 0.06787507 -0.037296012 -0.057764914 0.048942883
0.024750449 -0.022749403 0.054052394 -0.05688516 -0.08627319 0.06264012 0.034757525 0.028990822
0.018747568 0.07600696 -0.043169573 0.0659924 -0.07712131 0.006530479 -0.03876044 -0.005647172
-0.07388961 0.041335844 -0.06498669 -0.027513966 -0.04271549 -0.052266873 0.016429074 0.023789529
0.041494153 -0.029628048 0.06831977 0.034895528 -0.007609667 0.061194748 0.017265107 0.04901427
-0.06790748 0.084000826 0.049657196 0.06533739 0.054217454 -0.061583556 -0.06784309 0.08272993
0.0063559175 -0.0073150806 -0.03527229 0.026715424 -0.01471684 0.065750554 -0.0108017195 0.027123848
0.035000585 0.037256487 0.012694397 -0.01927513 0.045126308 -0.039002407 0.045812156 0.01965581
0.009720135 -0.06300349 0.023670064 -0.030666787 -0.059136428 0.041443095 0.052096117 -0.0036500804
-0.03120014 0.07813565 0.059655484 0.06113231 -0.029743973 0.06840509 -0.021639703 -0.06500521
-0.08365871 -0.013349971 -0.051328424 -0.08064488 -0.005544533 -0.0771996 -0.04714072 -0.08023451
-0.06545856 -0.012269484 0.00080391613 -0.024049988 0.042698674 -0.073539205 0.07217853 -0.0011931378
-0.08407264 -0.03270155 -0.01806759 0.018841922 -0.04266648 0.020052616 0.04321001 0.049882058
-0.08354711 -0.063916475 0.042939425 -0.05747795 -0.077112265 0.03096813 -0.07374836 -0.016069625
0.045162402 0.0782741 -0.068183795 0.077236556 0.028351223 0.06341548 0.023549896 0.047944423
-0.0507888 -0.026862815 0.04320779 0.0232552 -0.01396062 -0.034765918 0.07356219 0.017615084
0.053011384 0.025053173 -0.04467499 0.07284806 -0.02563409 0.06514868 0.07169917 -0.011193396
0.005924922 -0.07916279 0.07049317 0.00941655 -0.004193367 0.0020645692 0.030084478 -0.067019984
-0.009590958 -0.04161512 -0.031460088 -0.038639303 -0.049403608 -0.056432124 -0.031362306 -0.0187974
-0.065677114 0.07973101 -0.009594636 -0.029494189 0.07797546 -0.011005942 0.024124077 -0.062293157
-0.074011125 0.019810129 -0.061502047 -0.024797618 -0.041869905 0.044984072 -0.017074341 0.014617105
00000000: cf03 493d 1c82 6abd cb99 913b 2306 87bd
00000010: 3f9e a53d 2cbf 763d 9fcb 95bd db79 ee3c
00000020: 7e08 a7bd 49d4 033d 1b9a 29bc 9201 50bd
00000030: 67e0 903d 9afa a1bd e87e 403d d14d 043d
00000040: 1e28 a73d 20f8 d4bb db35 58bd 21f6 30bd
00000050: 9332 9cbb ad8b 883d 1926 663d 81cc 84bd
00000060: 5e84 983d e941 763c fe8f 293d 0da5 68bc
00000070: 9b1d 49bd e6d7 10bc e58d a2bd 7f30 573d
00000080: cafa 303d d65d 773d 3a06 9f3d 7b32 dc3c
00000090: 9bda b63c 9af0 9f3a ef58 2f3d 6866 b0bc
000000a0: 47e2 51bc 8e37 a3bd e2d5 863d a6a3 b6bc
000000b0: 0976 94bd a54a a5bc 18bb 673d 942d 433d
000000c0: b8f8 e43c 4f80 93bd 012c 8abd 6f83 5d3d
000000d0: 528c f03c 8036 f6bc 357e 1f3c 2ff8 dc3c
000000e0: 892f 8cbd 1c52 67bd a0c6 bebc d5c2 5b3d
000000f0: 95ed a3bd 37fe 1fbb 41e5 353d 38c0 08bc
00000100: c56b a53d e0df 2bbd beb8 963d 4abb e4bc
00000110: 40f8 543c 5099 3fbd 4795 593b 9c4e 903d
00000120: 4f20 6d3c 833c 023d 39a3 6a3c f8ec a2bc
00000130: f7c0 9e3d c495 2dbd db04 a13c 49cd 03bc
00000140: 1ee0 3bbd 0ab6 cc3b fb5b 67bd e872 273d
00000150: 3bac 98bd a5e0 073d e252 faba 6544 f3bc
00000160: 5a79 943d 7a2f 17bd 9b4e df3c 9d77 d2bc
00000170: 1602 8b3d b4c3 18bd e79a 6cbd 5578 483d
00000180: 74c1 ca3c f55c babc 0b66 5d3d 6a00 69bd
00000190: 00b0 b0bd 7749 803d e85d 0e3d 297e ed3c
000001a0: 8094 993c 89a9 9b3d 94d2 30bd 0627 873d
000001b0: c7f1 9dbd a1fd d53b 44c3 1ebd ea0b b9bb
000001c0: 7053 97bd c64f 293d be17 85bd f864 e1bc
000001d0: 70f6 2ebd ca15 56bd 4496 863c 42e2 c23c
000001e0: c6f5 293d 85b6 f2bc 3ceb 8b3d 9dee 0e3d
000001f0: 835a f9bb 58a7 7a3d 8e6f 8d3c 30c3 483d
00000200: 1413 8bbd a008 ac3d 5865 4b3d 9ccf 853d
00000210: 1f13 5e3d 0a3f 7cbd 51f1 8abd 4f6e a93d
00000220: 4d45 d03b 58b3 efbb ad79 10bd 4eda da3c
00000230: e71e 71bc 3aa8 863d b2f9 30bc d532 de3c
00000240: c65c 0f3d 429a 183d 29fc 4f3c e1e6 9dbc
00000250: 5dd6 383d fdc0 1fbd 87a5 3b3d 3905 a13c
00000260: 3341 1f3c f907 81bd b9e7 c13c ea38 fbbc
00000270: 0a39 72bd 3cc0 293d bd62 553d 3036 6fbb
00000280: 7097 ffbc 9505 a03d 4f59 743d e065 7a3d
00000290: a2a9 f3bc f817 8c3d bf45 b1bc 7421 85bd
000002a0: 4255 abbd d6b9 5abc c13d 52bd 2529 a5bd
000002b0: eaae b5bb d31a 9ebd a116 41bd fe51 a4bd
000002c0: 230f 86bd f205 49bc e6bd 523a 7b04 c5bc
000002d0: cee4 2e3d b99b 96bd 56d2 933d 1063 9cba
000002e0: 472e acbd 0ff2 05bd 7c02 94bc 605a 9a3c
000002f0: 0cc3 2ebd 6245 a43c fbfc 303d 2151 4c3d
00000300: bf1a abbd a4e6 82bd 40e1 2f3d 006e 6bbd
00000310: 09ed 9dbd e0b0 fd3c 6109 97bd 72a4 83bc
00000320: 36fc 383d 2c4e a03d f2a3 8bbd 332e 9e3d
00000330: d340 e83c fadf 813d b6eb c03c 5f61 443d
00000340: eb07 50bd 680f dcbc a7fa 303d b081 be3c
00000350: 16bb 64bc b566 0ebd c6a7 963d 824d 903c
00000360: 7722 593d 503c cd3c 1ffd 36bd 5d31 953d
00000370: 95fe d1bc ac6c 853d 04d7 923d 8164 37bc
00000380: d925 c23b 1a20 a2bd b95e 903d e047 1a3c
00000390: 8368 89bb b94d 073b b973 f63c c641 89bd
000003a0: 6523 1dbc 9e74 2abd 4bdc 00bd 3f44 1ebd
000003b0: 705b 4abd 5f25 67bd c375 00bd 01fd 99bc
000003c0: b981 86bd 034a a33d d232 1dbc cc9d f1bc
000003d0: 99b1 9f3d 4452 34bc db9f c53c 1c27 7fbd
000003e0: 2593 97bd da48 a23c 92e9 7bbd 6024 cbbc
000003f0: c77f 2bbd 3841 383d 7ddf 8bbc 957c 6f3c

layer1.0.bn1.weight f4 [16]
1.0002767 1.0015993 1.0024683 0.99737966 1.0016009 0.9983548 0.9956804 0.99815005
0.993658 1.005197 0.99819195 0.9999727 1.0014993 1.003431 0.99985963 1.0019966
00000000: 1109 803f 6834 803f e250 803f 4654 7f3f
00000010: 7534 803f 2e94 7f3f e9e4 7e3f c386 7f3f
00000020: 5f60 7e3f 4caa 803f 8289 7f3f 36fe 7f3f
00000030: 2131 803f 6d70 803f cdf6 7f3f 6d41 803f

layer1.0.bn1.bias f4 [16]
0.0029178222 0.005641553 0.0003477311 0.00031123628 0.00038897735 -0.0063914834 -0.0006901489 -0.0013216174
-0.005222226 0.0034534186 -0.0047894185 0.0009865942 0.001323057 9.849388e-05 0.00027155783 -0.0007387694
00000000: ef38 3f3b c7dc b83b ae4f b639 6d2d a339
00000010: a8ef cb39 a66f d1bb 1ceb 34ba 1f3a adba
00000020: 351f abbb c052 623b 8ef0 9cbb 9c50 813a
00000030: 6d6a ad3a 808e ce38 e05f 8e39 faa9 41ba

layer1.0.bn1.running_mean f4 [16]
0.22910348 -0.2946186 0.24118385 0.1482533 0.29520518 -0.1525886 0.09666056 -0.56411505
-0.520052 0.27940136 0.116016366 0.15769953 0.09465676 0.03633774 0.23624258 0.47552124
00000000: 1a9a 6a3e 40d8 96be e6f8 763e b7cf 173e
00000010: 2225 973e 3040 1cbe f9f5 c53d d869 10bf
00000020: 2122 05bf b20d 8f3e fd99 ed3d fc7b 213e
00000030: 67db c13d e2d6 143d 93e9 713e 8577 f33e

layer1.0.bn1.running_var f4 [16]
0.09130259 0.10200016 0.1025172 0.07485771 0.07846102 0.099677406 0.060744185 0.30471355
0.06554305 0.14522073 0.033509646 0.07277082 0.042577557 0.070860684 0.115706764 0.1112328
00000000: dafc ba3d 76e5 d03d 8af4 d13d 004f 993d
00000010: 2cb0 a03d ab23 cc3d e5ce 783d 6a03 9c3e
00000020: 6f3b 863d beb4 143e 6941 093d de08 953d
00000030: ce65 2e3d 681f 913d abf7 ec3d 06ce e33d

layer1.0.conv2.weight f4 [16, 16, 3, 3]
-0.06504919 -0.0011524148 0.062223885 -0.03930707 0.030778553 -0.04562825 -0.038815353 -0.047285125
0.04567639 0.031972475 0.0466386 -0.020397883 0.01707741 0.011868477 0.046854254 0.07825597
-0.054922678 0.018519256 0.0718698 -0.031006392 0.015901752 -0.05255701 -0.075345784 -0.057382632
0.06775497 -0.03333004 0.0039602444 0.07519654 -0.07011314 -0.017758407 0.020661043 -0.023236515
-0.008905806 -0.026669525 0.07621994 0.057309866 -0.061897762 0.03471051 0.01972289 0.0029243038
-0.05068925 -0.06110518 -0.026923433 0.010434213 -0.07315644 0.06499088 0.06193769 -0.0129294135
0.004369753 0.072898194 0.020320578 -0.038861327 0.08007385 -0.04305229 -0.023134762 0.008282234
0.0110354 -0.0012127454 -0.052769028 -0.032271996 -0.0619757 -0.012099797 -0.03306631 -0.06203252
0.051764652 -0.036882635 -0.009313859 0.016446574 0.0060842647 0.017052513 -0.027230732 -0.02721152
0.04898825 0.065629154 -0.06996449 -0.024701925 0.019358357 0.008953432 -0.049866166 -0.025051428
0.0028796631 -0.047570027 0.069343776 0.048560154 -0.045205694 -0.062936805 -0.055233695 0.033985026
-0.009925209 -0.024136698 -0.046570364 -0.05724142 0.05601619 0.05465814 -0.075563505 -0.074792616
0.019718073 0.05585659 0.05499203 0.043271936 0.065882474 -0.010437778 -0.03875341 0.0626863
-0.033841453 -0.0021995392 -0.03626875 -0.037033666 0.063496836 0.06515615 -0.04809432 0.055126313
0.042194318 0.017740494 -0.055706315 -0.0766539 0.08127339 0.04068239 -0.05927212 0.007258292
-0.026082417 0.03899087 -0.020792704 0.04110485 0.033283547 0.05947335 -0.07971806 -0.06725404
-0.08360618 0.059707403 -0.033058483 0.020942263 -0.024443751 -0.023261633 -0.053439762 0.04068276
-0.0482737 0.0119822025 -0.019078478 -0.08091217 0.04300077 0.005850962 -0.07298532 -0.008409549
-0.039645255 0.045237474 0.08082496 -0.06341535 -0.005754707 0.035724536 -0.0048594354 0.051068988
0.03333869 0.053745557 0.07222977 0.05888096 -0.07851254 -0.0009365017 -0.07491061 0.0030067128
0.021282645 -0.08029535 0.0023250175 0.002115585 0.06262687 -0.008406798 0.033409424 -0.061571006
0.06551584 0.0152487885 0.05028084 -0.04273005 0.067719385 0.050044317 -0.0357491 -0.03545522
0.03770727 -0.06990088 0.07155228 -0.029458348 0.019914467 -0.06309938 -0.026231363 -0.07005011
0.014185913 0.016734751 -0.030466143 -0.017124897 0.029013073 0.024290368 0.04889312 -0.017671367
0.031918615 -0.061856385 0.02520857 0.0761688 0.04896666 0.03207158 -0.061662693 -0.035393875
-0.07512974 -0.022427013 0.004447707 0.024148885 0.04645807 0.07102434 0.056949385 -0.07668158
-0.035500422 0.035744186 -0.005558857 -0.05650666 0.06515438 -0.0044939304 0.052304503 -0.023253726
-0.0013881697 0.06332884 0.03461778 -0.056097515 0.075225934 0.0772114 0.023859443 -0.07168903
0.032694474 0.044042367 -0.047052987 -0.029569628 0.06045671 -0.055519436 0.026485175 -0.056111414
0.06506136 -0.06831643 -0.05524001 -0.03596565 0.05574297 -0.03976685 0.07513416 -0.0608086
0.026751293 -0.069738425 0.030390618 0.055109445 -0.081499815 -0.0793741 0.03809877 0.00087296934
-0.052596536 -0.079864025 0.046750497 0.02579841 -0.0016644929 0.020136816 -0.04581336 -0.0013887704
00000000: 8238 85bd a00c 97ba 79de 7e3d 7300 21bd
00000010: 4e23 fc3c b0e4 3abd d9fc 1ebd 0cae 41bd
00000020: 2b17 3b3d 92f5 023d 1e08 3f3d 7619 a7bc
00000030: ede5 8b3c 0074 423c 3fea 3f3d aa44 a03d
00000040: 9af6 60bd b2b5 973c 7930 933d 1e01 febc
00000050: 6444 823c 0546 57bd e44e 9abd 0d0a 6bbd
00000060: 1ec3 8a3d 1485 08bd f0c4 813b a500 9a3d
00000070: 7a97 8fbd 147a 91bc 5941 a93c 815a bebc
00000080: a8e9 11bc 0c7a dabc 3319 9c3d c0bd 6a3d
00000090: 8288 7dbd 9c2c 0e3d e691 a13c ada5 3f3b
000000a0: 889f 4fbd 6d49 7abd 888e dcbc 43f4 2a3c
000000b0: 0bd3 95bd f019 853d 60b2 7d3d e4d5 53bc
000000c0: 2530 8f3b a64b 953d 5777 a63c 0e2d 1fbd
000000d0: c2fd a33d 9957 30bd 1d85 bdbc 35b2 073c
000000e0: d3cd 343c fcf4 9eba 5624 58bd a42f 04bd
000000f0: 3bda 7dbd 3a3e 46bc 8a70 07bd d015 7ebd
00000100: 2c07 543d 3f12 17bd 2899 18bc f7ba 863c
00000110: 835e c73b b6b1 8b3c fc12 dfbc b2ea debc
00000120: e7a7 483d 9468 863d 8b49 8fbd b15b cabc
00000130: 6b95 9e3c 6ab1 123c 7740 4cbd a738 cdbc
00000140: bbb8 3c3b cad8 42bd 1c04 8e3d 03e7 463d
00000150: 9b29 39bd 03e5 80bd ba3c 62bd e233 0b3d
00000160: 589d 22bc 53ba c5bc 91c0 3ebd fb75 6abd
00000170: 3c71 653d 37e1 5f3d 0ac1 9abd df2c 99bd
00000180: cc87 a13c e1c9 643d 533f 613d ea3d 313d
00000190: 64ed 863d 3703 2bbc e5bb 1ebd ad61 803d
000001a0: 569d 0abd 2526 10bb 8a8e 14bd 9db0 17bd
000001b0: a10a 823d 9670 853d 8dfe 44bd 21cc 613d
000001c0: f3d3 2c3d 8354 913c 4e2c 64bd b8fc 9cbd
000001d0: aa72 a63d 94a2 263d 53c7 72bd f7d6 ed3b
000001e0: cbaa d5bc e4b4 1f3d 7655 aabc 8f5d 283d
000001f0: 5454 083d 549a 733d 3943 a3bd 7cbc 89bd
00000200: b839 abbd c08f 743d 5568 07bd 1c8f ab3c
00000210: 433e c8bc 2e8f bebc a7e3 5abd f7a2 263d
00000220: a5ba 45bd 0051 443c 784a 9cbc 48b5 a5bd
00000230: 9321 303d 6db9 bf3b 5479 95bd 34c8 09bc
00000240: 1063 22bd ee4a 393d 8e87 a53d e8df 81bd
00000250: fb91 bcbb e453 123d e63b 9fbb b72d 513d
00000260: 268e 083d 4d24 5c3d 34ed 933d 292d 713d
00000270: 2fcb a0bd 917f 75ba bc6a 99bd 450c 453b
00000280: f158 ae3c e371 a4bd 525f 183b a0a5 0a3b
00000290: 8442 803d abbc 09bc 52d8 083d e131 7cbd
000002a0: 2b2d 863d 0ed6 793c 48f3 4d3d b405 2fbd
000002b0: 76b0 8a3d 45fb 4c3d a66d 12bd 7e39 11bd
000002c0: f072 1a3d 3128 8fbd 008a 923d a252 f1bc
000002d0: aa23 a33c 3f3a 81bd 28e3 d6bc 6f76 8fbd
000002e0: 086c 683c 5117 893c 2294 f9bc 8349 8cbc
000002f0: d3ac ed3c 98fc c63c 2744 483d 8bc3 90bc
00000300: 18bd 023d 1f5d 7dbd 3482 ce3c 63fe 9b3d
00000310: 4491 483d 7d5d 033d 0592 7cbd 2bf9 10bd
00000320: 9fdd 99bd dbb8 b7bc 12be 913b e2d3 c53c
00000330: d14a 3e3d 3675 913d c243 693d 3b0b 9dbd
00000340: e468 11bd 7f68 123d 1327 b6bb 8773 67bd
00000350: a96f 853d d241 93bb 3f3d 563d 997e bebc
00000360: 3ff3 b5ba 8db2 813d 60cb 0d3d 82c6 65bd
00000370: 0e10 9a3d 0321 9e3d e174 c33c b3d1 92bd
00000380: a4ea 053d c565 343d a2ba 40bd 013c f2bc
00000390: 75a1 773d 5968 63bd 70f7 d83c 15d5 65bd
000003a0: e43e 853d 7ce9 8bbd 5943 62bd b850 13bd
000003b0: be52 643d 91e2 22bd f0df 993d 7012 79bd
000003c0: 8725 db3c 05d3 8ebd bff5 f83c 71ba 613d
000003d0: 60e9 a6bd e38e a2bd 750d 1c3d fbd7 643a
000003e0: 776f 57bd c08f a3bd 737d 3f3d 3057 d33c
000003f0: 1d2b daba f7f5 a43c caa6 3bbd 6707 b6ba

layer1.0.bn2.weight f4 [16]
0.99336255 0.9995064 1.0002362 0.99979466 0.9986782 0.9978958 1.0030389 1.0029596
1.0011151 1.0007838 1.0020903 0.99900055 0.9977059 0.9986947 1.0020597 0.9999125
00000000: 024d 7e3f a7df 7f3f bd07 803f 8bf2 7f3f
00000010: 60a9 7f3f 1976 7f3f 9463 803f fb60 803f
00000020: 8a24 803f af19 803f 7f44 803f 80be 7f3f
00000030: a769 7f3f 75aa 7f3f 7e43 803f 44fa 7f3f

layer1.0.bn2.bias f4 [16]
-0.0011174614 0.0022574721 -0.0010764067 -0.00039897853 0.000278564 -0.006581911 -0.0048077325 0.001022095
0.0006107519 0.0011793975 -0.0018175535 0.0024045717 0.002559488 9.332007e-05 0.0029117418 0.0014031157
00000000: c877 92ba 19f2 133b 3716 8dba fe2d d1b9
00000010: 3a0c 9239 12ad d7bb 2f8a 9dbb d1f7 853a
00000020: de1a 203a 0396 9a3a fa3a eeba 0596 1d3b
00000030: 15bd 273b d5b4 c338 ecd2 3e3b c0e8 b73a

layer1.0.bn2.running_mean f4 [16]
-0.20528413 0.17328697 0.3271674 -0.40583122 -0.0118994815 -0.39076596 -0.0006343337 0.10926104
-0.5245087 -0.13647741 0.2429892 -0.33892056 -0.15213335 -0.0016882289 0.013113108 -0.045396205
00000000: 0136 52be 2472 313e 7c82 a73e 1cc9 cfbe
00000010: 0bf6 42bc 7a12 c8be 6a49 26ba 41c4 df3d
00000020: 3446 06bf bcc0 0bbe 29d2 783e ff86 adbe
00000030: d8c8 1bbe 9047 ddba 5dd8 563c 5ff1 39bd

layer1.0.bn2.running_var f4 [16]
0.10505488 0.062391635 0.15525058 0.15514384 0.12604088 0.11354402 0.19368574 0.10648172
0.30839425 0.12385609 0.14960045 0.23843776 0.12967081 0.26449916 0.30932033 0.062939405
00000000: 0327 d73d 5f8e 7f3d 02fa 1e3e 07de 1e3e
00000010: dc10 013e c489 e83d 8e55 463e 1713 da3d
00000020: dae5 9d3e 43a8 fd3d dc30 193e 0729 743e
00000030: 6dc8 043e 6f6c 873e 3c5f 9e3e 60e6 803d

layer2.0.conv1.weight f4 [32, 16, 3, 3]
-0.04156858 -0.05225746 -0.060611736 0.033358525 -0.050869927 0.011101127 0.04057927 0.021281796
0.0017957414 -0.006127843 0.05009435 -0.017209955 -0.023559881 -0.025456661 -0.0034006597 -0.044603046
0.062088575 -0.017270032 0.014112747 -0.060642414 -0.017052846 -0.022714134 -0.029148325 0.0630505
-0.0797016 -0.042292684 0.010132195 0.08323614 0.07967062 0.04632246 0.038477294 0.003911473
-0.050285287 -0.024935551 0.06254927 0.024441771 -0.033131547 0.027411897 -0.02468629 -0.013719088
-0.0023316236 -0.039067436 -0.008371989 -0.049186047 0.03503968 -0.07725246 0.001968071 0.07516372
0.00056038104 -0.046972927 0.061379705 -0.035891354 -0.052949864 0.016773142 -0.07585308 0.004041982
0.013657564 0.07612396 0.076551996 0.047915265 -0.04102148 0.0023027859 0.032753043 -0.015227839
-0.059052512 -0.031840194 0.008692044 -0.010087082 -0.0076006656 -0.0592692 -0.042617608 -0.035148904
0.02237105 0.02895089 0.06900125 0.034567513 -0.07531758 -0.04743813 0.064727634 0.057181764
-0.01571655 0.0720759 0.045300413 -0.067449905 0.048167955 -0.082375094 0.03775425 -0.025223603
-0.05793206 0.07850202 0.03853257 0.081944175 -0.06600432 -0.067575514 0.07412556 0.041941598
-0.07391327 -0.06635147 0.0068835453 -0.050521363 -0.07258939 0.026822038 -0.07071441 0.07899306
0.015176082 -0.024389906 0.045876984 -0.076475225 -0.007668421 0.006809132 0.06585872 -0.007700502
0.029782789 -0.0012089428 -0.047743335 0.05159327 0.0719211 -0.05693617 0.07764857 0.04868681
-0.04230954 0.060969274 0.07729879 0.033527482 -0.018039262 0.03758972 0.08038007 -0.08047146
0.07598467 0.015081354 0.021870421 -0.018941222 0.01937726 -0.006360411 -0.06603532 -0.059031583
-0.080091394 -0.01472034 -0.0038766542 -0.009709246 0.06485938 0.018640803 -0.0037148814 -0.06221145
0.051442552 0.083265014 0.0042813458 -0.019568225 -0.057531677 0.009386572 0.030583048 -0.019554349
0.017248357 -0.009246911 0.018638475 -0.049051873 -0.026793182 0.04442974 0.052029442 -0.04091065
0.035040088 0.033222172 0.06466825 -0.08362748 -0.0385601 0.002414115 -0.0825859 -0.046456512
-0.026037598 -0.01638566 0.068290584 -0.038657583 0.023146356 0.01941455 0.08485455 -0.033355713
-0.036081772 0.07144803 -0.050800268 0.040393203 0.02213248 0.043291498 -0.052979186 -0.079336576
-0.032105356 0.056605916 -0.049620733 0.05937809 -0.010933823 -0.06905861 0.06765263 0.062450755
0.07128065 0.05889132 0.0762151 0.027225029 -0.060821503 0.009715573 -0.052864894 -0.06557882
-0.018979486 0.026701039 -0.023781434 0.07464035 -0.043054752 0.0042474577 -0.065327175 0.040880334
-0.041796446 -0.08492494 0.042086728 0.02564675 -0.059465997 0.020660203 0.00018396642 -0.08554086
0.045128595 0.0066146613 0.07306062 -0.035680573 -0.0646533 0.038728848 0.013872514 -0.013841331
0.034225754 0.02452959 0.05014356 0.035389423 -0.07163243 -0.004320693 -0.0761529 -0.015963076
0.0071767466 -0.027845817 0.011214476 -0.00010038058 0.07160747 -0.08155031 0.005275174 0.059041906
0.029639272 0.051916003 0.023264498 0.061324 0.0080067525 0.013481227 -0.013104774 0.0010400487
0.000116779716 0.062043633 0.029344117 -0.054354217 -0.058717787 -0.009470458 0.052319422 0.08208479
00000000: d143 2abd eb0b 56bd 0344 78bd f3a2 083d
00000010: fc5c 50bd 80e1 353c 7336 263d 2957 ae3c
00000020: 155f eb3a 13cc c8bb bc2f 4d3d e4fb 8cbc
00000030: a700 c1bc 7d8a d0bc 9add 5ebb afb1 36bd
00000040: 9750 7e3d e279 8dbc 2739 673c 2e64 78bd
00000050: 69b2 8bbc fe12 babc 78c8 eebc 9f20 813d
00000060: 983a a3bd 183b 2dbd 8201 263c b677 aa3d
00000070: 5a2a a33d 9fbc 3d3d 5e9a 1d3d d02b 803b
00000080: f2f7 4dbd a445 ccbc d519 803d 1c3a c83c
00000090: f2b4 07bd ea8e e03c e73a cabc 07c6 60bc
000000a0: 27ce 18bb 2d05 20bd ab2a 09bc 4f77 49bd
000000b0: c485 0f3d 8a36 9ebd c1fa 003b 70ef 993d
000000c0: 89e6 123a af66 40bd 4969 7b3d d002 13bd
000000d0: f5e1 58bd d467 893c dc58 9bbd 9a72 843b
000000e0: fac3 5f3c e1e6 9b3d 4bc7 9c3d cc42 443d
000000f0: 2406 28bd 56ea 163b 0e28 063d 307e 79bc
00000100: 0ce1 71bd dd6a 02bd 1369 0e3c 4a44 25bc
00000110: 010f f9bb 43c4 72bd cd8f 2ebd 4cf8 0fbd
00000120: 7e43 b73c 6b2a ed3c 8750 8d3d aa96 0d3d
00000130: 1a40 9abd 7c4e 42bd ec8f 843d 6d37 6a3d
00000140: ffbf 80bc 889c 933d ed8c 393d 2d23 8abd
00000150: c34b 453d 46b4 a8bd 33a4 1a3d bba1 cebc
00000160: 2b4a 6dbd abc5 a03d 54d4 1d3d 59d2 a73d
00000170: 462d 87bd 0865 8abd 24cf 973d f4ca 2b3d
00000180: d75f 97bd 48e3 87bd 5d8f e13b 7def 4ebd
00000190: bfa9 94bd e4b9 db3c b7d2 90bd 1dc7 a13d
000001a0: 1aa5 783c 57cd c7bc 81e9 3b3d 0b9f 9cbd
000001b0: 6147 fbbb 241f df3b f0e0 863d 7e54 fcbb
000001c0: 09fb f33c 6475 9eba 848e 43bd 7753 533d
000001d0: 5f4b 933d e735 69bd 3706 9f3d d26b 473d
000001e0: c54c 2dbd ebba 793d d44e 9e3d 1d54 093d
000001f0: 13c7 93bc aef7 193d 4e9e a43d 39ce a4bd
00000200: da9d 9b3d c917 773c 9929 b33c 9f2a 9bbc
00000210: 0fbd 9e3c ff6a d0bb 873d 87bd 1acb 71bd
00000220: f506 a4bd 952d 71bc 770f 7ebb 8813 1fbc
00000230: ffd4 843d 99b4 983c 5e75 73bb 6fd1 7ebd
00000240: 6db5 523d d986 aa3d 884a 8c3b 8b4d a0bc
00000250: 56a6 6bbd 23ca 193c 4d89 fa3c 7130 a0bc
00000260: 6d4c 8d3c 5b80 17bc b7af 983c 9eea 48bd
00000270: 607d dbbc f6fb 353d d31c 553d ed91 27bd
00000280: 3286 0f3d f913 083d ca70 843d e244 abbd
00000290: 32f1 1dbd 2136 1e3b cc22 a9bd 2f49 3ebd
000002a0: cd4c d5bc 383b 86bc efdb 8b3d 6a57 1ebd
000002b0: 6d9d bd3c 430b 9f3c 39c8 ad3d 00a0 08bd
000002c0: 7bca 13bd 5853 923d f113 50bd 5873 253d
000002d0: 2d4f b53c 6d52 313d b400 59bd 377b a2bd
000002e0: e880 03bd 9bdb 673d 1c3f 4bbd 7136 733d
000002f0: c723 33bc 9a6e 8dbd 768d 8a3d 5dcc 7f3d
00000300: 97fb 913d 0638 713d aa16 9c3d 0607 df3c
00000310: f81f 79bd 112e 1f3c dc88 58bd 304e 86bd
00000320: de7a 9bbc 23bc da3c 48d1 c2bc 0add 983d
00000330: 2e5a 30bd 422e 8b3b 41ca 85bd 2372 273d
00000340: c032 2bbd 20ed adbd 2263 2c3d 2219 d23c
00000350: 9e92 73bd 963f a93c 1ce7 4039 0c30 afbd
00000360: c3d8 383d cdbf d83b cea0 953d cb25 12bd
00000370: f368 84bd 24a2 1e3d 8a49 633c c0c6 62bc
00000380: 4e30 0c3d 47f2 c83c 5563 4d3d 80f4 103d
00000390: 06b4 92bd 9a94 8dbb 0df6 9bbd ffc4 82bc
000003a0: ea2a eb3b e91c e4bc ecbc 373c 6a83 d2b8
000003b0: f0a6 923d d903 a7bd 5edb ac3b edd5 713d
000003c0: 0fce f23c e0a5 543d 3095 be3c e02e 7b3d
000003d0: c12e 033c 5de0 5c3c 68b5 56bc 3e52 883a
000003e0: a2e7 f438 7721 7e3d 1363 f03c 87a2 5ebd
000003f0: 1082 70bd fb29 1bbc e44c 563d 121c a83d

layer2.0.bn1.weight f4 [32]
1.0011185 1.0007347 0.99444246 0.9965058 0.9961912 1.001737 1.0022929 1.0027053
0.99923706 1.0034828 1.0036523 0.99708015 1.0034603 1.0029924 0.9952559 1.0001098
0.9984295 0.9976961 0.9966152 1.0004647 0.99765414 0.9963046 0.9996393 0.9995478
0.9932257 0.9994247 0.99805576 1.0022177 1.0064337 1.0028757 1.003981 0.99959165
00000000: a724 803f 1318 803f c893 7e3f 011b 7f3f
00000010: 6306 7f3f eb38 803f 224b 803f a658 803f
00000020: 00ce 7f3f 2072 803f ae77 803f a540 7f3f
00000030: 6371 803f 0e62 803f 17c9 7e3f 9903 803f
00000040: 1399 7f3f 0369 7f3f 2c22 7f3f 3a0f 803f
00000050: 4366 7f3f d10d 7f3f 5ce8 7f3f 5de2 7f3f
00000060: 0a44 7e3f 4cda 7f3f 9580 7f3f ab48 803f
00000070: d2d2 803f 3b5e 803f 7382 803f 3de5 7f3f

layer2.0.bn1.bias f4 [32]
-0.0007555669 0.0007728192 -0.0028845444 -0.00030487182 -0.0027325023 0.0026724595 0.0052730613 0.00043872686
0.0009544957 0.0023245122 0.00218077 -0.0015302432 0.0029324207 0.0010180416 -0.003542598 0.0015584455
-0.0022495224 -0.0034181192 -0.003107075 -0.00019159348 -0.0015314622 -0.0013223205 0.002645303 -0.0009998551
-0.0063891644 0.0027382732 -9.4994604e-05 0.00055007654 0.0030391302 0.000112990165 -0.00026711653 0.002262394
00000000: 3d11 46ba 0597 4a3a a00a 3dbb 34d7 9fb9
00000010: c813 33bb 6e24 2f3b a5c9 ac3b ec04 e639
00000020: 1f37 7a3a d856 183b 40eb 0e3b 7192 c8ba
00000030: db2d 403b cf6f 853a ef2a 68bb c144 cc3a
00000040: b96c 13bb 8602 60bb 12a0 4bbb 7ce6 48b9
00000050: 58bb c8ba b751 adba d25c 2d3b 920d 83ba
00000060: 325c d1bb 9a74 333b d737 c7b8 0333 103a
00000070: 252c 473b 22f5 ec38 c60b 8cb9 ac44 143b

layer2.0.bn1.running_mean f4 [32]
-0.016206516 -0.017781649 -0.17730296 -0.3026277 -0.21749778 -0.59179705 -0.565436 -0.003526046
0.17524484 -0.26146013 -1.0547107 0.28695434 0.28401023 0.12327763 0.42711145 0.06302236
0.24897267 0.114340246 -0.0128122615 0.10958581 0.19007364 -0.0053172046 0.115263894 -0.91942346
-0.3060868 -0.24361132 -0.116478175 -0.17137614 0.15314762 0.06350911 -0.43781975 -0.38182113
00000000: 87c3 84bc d2aa 91bc e88e 35be 05f2 9abe
00000010: bdb7 5ebe 0380 17bf 6ac0 10bf 3c15 67bb
00000020: 6273 333e 1ade 85be c300 87bf aeeb 923e
00000030: ca69 913e fb78 fc3d 5aae da3e de11 813d
00000040: b1f2 7e3e 382b ea3d 85ea 51bc 866e e03d
00000050: aaa2 423e f23b aebb 7a0f ec3d 565f 6bbf
00000060: 69b7 9cbe 3f75 79be 1c8c eebd 3a7d 2fbe
00000070: bbd2 1c3e 1011 823d e929 e0be 0f7e c3be

layer2.0.bn1.running_var f4 [32]
0.13618025 0.2431512 0.18972164 0.07451898 0.18345861 0.28601003 0.1229629 0.18474552
0.1043748 0.15611196 0.32054174 0.10825599 0.11973353 0.68027985 0.19347021 0.28855515
0.21190798 0.16072612 0.21343325 0.103777 0.23727696 0.24461794 0.16081662 0.35173905
0.11107256 0.49886218 0.23008421 0.31186655 0.20487191 0.29001522 0.16043688 1.3272871
00000000: d672 0b3e a1fc 783e 6446 423e 689d 983d
00000010: 93dc 3b3e e86f 923e f9d3 fb3d ee2d 3d3e
00000020: 75c2 d53d d0db 1f3e 0c1e a43e 51b5 dd3d
00000030: da36 f53d d226 2e3f 0e1d 463e 80bd 933e
00000040: 68fe 583e 6395 243e 3f8e 5a3e 0989 d43d
00000050: bbf8 723e 207d 7a3e 1dad 243e 2417 b43e
00000060: 037a e33d dd6a ff3e 329b 6b3e f9ac 9f3e
00000070: f1c9 513e e07c 943e 9149 243e 8be4 a93f

layer2.0.conv2.weight f4 [32, 32, 3, 3]
0.048865095 -0.025773995 0.045197222 0.000254032 -0.0021067036 -0.015159339 -0.0047446033 0.04665917
-0.01820352 0.020653801 -0.057665758 0.04011095 -0.0113874255 0.026189998 -0.02876314 0.014607256
0.025169546 0.0100925295 0.021921437 -0.05550124 0.025968473 0.03258847 0.04823927 -0.012384495
0.012898341 0.016025264 0.03716145 0.0027680623 0.003936014 0.044683978 -0.011336671 0.051291935
-0.028192507 0.030948868 -0.0058510615 -0.013512126 -0.019467732 0.054308813 -0.035216305 0.022862999
0.014136117 0.030892259 0.05368602 0.036980376 -0.054437723 -0.004321852 0.017074978 0.004811886
0.055066746 -0.057862587 -0.021134257 -0.05623623 -0.001980941 0.007923155 0.044206444 -0.016599083
0.048066147 -0.04596303 -0.051883843 0.024257347 -0.042449836 0.010569683 -0.013696897 -0.010370079
0.031997595 0.041420948 0.0036908735 -0.04793549 -0.051423915 -0.015232673 0.017669445 -0.033552155
-0.056833953 0.03371928 -0.047721554 0.026434388 -0.048249688 -0.015710065 -0.03166288 -0.046177458
0.051051915 0.037905164 0.04603389 0.035181545 -0.025252106 -0.030126331 0.023651564 0.025985133
0.05124606 0.04877642 -0.016193425 -0.039918974 0.04943871 -0.045205124 -0.032332715 -0.05180877
0.049894605 -0.028350975 0.026037484 -0.032237634 -0.057588667 0.048022408 0.013424149 -0.01643911
0.020410258 -0.0586262 -0.013722897 0.039372433 -0.0031779772 0.059722476 -0.03175962 -0.00792316
0.012054 -0.030289615 -0.0098867435 -0.053640276 -0.03701879 0.05484714 0.024861582 -0.009986875
0.0005181119 -0.039958842 -0.006364763 0.057405885 0.042344004 -0.002505104 0.0064971456 0.022187697
-0.0142789 0.055879794 0.0060553662 0.012665502 -0.017969526 -0.0009832158 -0.013539501 0.013295232
0.04990471 0.040906988 -0.016934365 0.05661975 0.025757302 0.024040874 -0.011253811 0.02890981
0.013613367 -0.019587386 0.020541053 -0.04514763 -0.020556707 0.0075586047 -0.03300909 0.027980112
-0.04056128 0.034571677 -0.024147984 0.011737565 -0.016262112 -0.004147042 -0.040906515 0.054416068
0.0047213444 -0.00378157 0.027754715 -0.057452254 -0.031994898 0.013298613 -0.00039917417 0.04541681
-0.028306343 -0.055838387 -0.014889301 -0.04921958 -0.027343864 0.020873774 0.021622887 -0.014377293
-0.012933565 -0.04942772 0.044874717 -0.026956279 0.03347448 0.01464892 -0.007690969 0.05008962
0.025088204 -0.00991553 -0.042742755 -0.046314236 -0.057798684 0.031765286 0.021735031 0.00570743
-0.004031327 0.0054931967 0.016583065 -0.036223568 -0.005937331 -0.049536765 -0.046784915 0.0019365485
0.0035130605 -0.04725699 -0.0069171153 0.042496037 -0.01205319 -0.024763932 -0.057312086 0.03629856
-0.051021904 0.015851263 -0.030430546 0.008931086 -0.011997381 -0.053422466 0.03683541 -0.018793734
0.014757017 -0.032879826 -0.0005206886 0.042314548 0.0032876928 -0.019754674 -0.022959443 0.022245446
0.04080809 -0.00029133225 -0.03352278 -0.022240328 -0.014318207 -0.006506811 0.02976612 0.052014075
0.052278426 0.019952498 0.018969174 0.010218758 0.015272408 -0.038106177 0.04895755 -0.027966337
-0.042108104 -0.03109584 -0.03357438 -0.0046488335 0.012341585 0.037544813 0.011451201 -0.041935824
0.034271166 0.05360393 -0.04792661 0.034676466 0.015577311 -0.03198038 -0.026217874 -0.03644793
00000000: c426 483d fc23 d3bc b920 393d 992f 8539
00000010: 9f10 0abb e05e 78bc 9e78 9bbb b01d 3f3d
00000020: 8c1f 95bc 2932 a93c ee32 6cbd 614b 243d
00000030: 5392 3abc 688c d63c ada0 ebbc 4653 6f3c
00000040: 5d30 ce3c 235b 253c 9694 b33c 4555 63bd
00000050: d6bb d43c 7d7b 053d 8a96 453d 56e8 4abc
00000060: 9053 533c 6a47 833c 9b36 183d 6168 353b
00000070: aef9 803b 8c06 373d 72bd 39bc 7e17 523d
00000080: f9f3 e6bc 7b88 fd3c 43ba bfbb f761 5dbc
00000090: cb7a 9fbc eb72 5e3d f93e 10bd 2f4b bb3c
000000a0: 2c9b 673c c311 fd3c dfe5 5b3d bc78 173d
000000b0: 17fa 5ebd 529e 8dbb d3e0 8b3c 07ad 9d3b
000000c0: ab8d 613d 5201 6dbd c021 adbc f657 66bd
000000d0: add2 01bb 1fd0 013c d111 353d cdfa 87bc
000000e0: 02e1 443d bb43 3cbd 2784 54bd 58b7 c63c
000000f0: e1df 2dbd 772c 2d3c f368 60bc 44e7 29bc
00000100: e90f 033d 03a9 293d 95e2 713b 0158 44bd
00000110: e2a1 52bd 7692 79bc 83bf 903c fc6d 09bd
00000120: b8ca 68bd 3a1d 0a3d ad77 43bd ee8c d83c
00000130: 77a1 45bd 65b2 80bc f0b0 01bd 9324 3dbd
00000140: d01b 513d 7242 1b3d 088e 3c3d 861a 103d
00000150: 81dd cebc 7fcb f6bc edc0 c13c c6de d43c
00000160: 63e7 513d c9c9 473d 13a8 84bc 1482 23bd
00000170: 3f80 4a3d 0229 39bd 4f6f 04bd 6f35 54bd
00000180: 495e 4c3d 4e40 e8bc 904c d53c 9c0b 04bd
00000190: 18e2 6bbd 25b3 443d f6f0 5b3c 50ab 86bc
000001a0: 6a33 a73c 0722 70bd 00d6 60bc fd44 213d
000001b0: 9c45 50bb 8e9f 743d 6016 02bd 24d0 01bc
000001c0: 247e 453c ed21 f8bc 02fc 21bc e8b5 5bbd
000001d0: 04a1 17bd 65a7 603d 84aa cb3c fd9f 23bc
000001e0: e7d1 073a e2ab 23bd 808f d0bb 6f22 6b3d
000001f0: e870 2d3d ac2c 24bb 02e6 d43b f9c2 b53c
00000200: 0cf2 69bc 36e2 643d 186c c63b f782 4f3c
00000210: d434 93bc 3fdf 80ba c8d4 5dbc 3fd4 593c
00000220: e268 4c3d 168e 273d f0b9 8abc 1cea 673d
00000230: fa00 d33c 5ef1 c43c e861 38bc 44d4 ec3c
00000240: 9a0a 5f3c ba75 a0bc b645 a83c b9ec 38bd
00000250: 8a66 a8bc 2cae f73b 8a34 07bd 8c36 e53c
00000260: 9623 26bd 089b 0d3d fed1 c5bc ea4e 403c
00000270: 1f38 85bc e9e3 87bb 978d 27bd 62e3 5e3d
00000280: 82b5 9a3b 37d4 77bb db5d e33c 0e53 6bbd
00000290: 150d 03bd 6de2 593c 4048 d1b9 fa06 3a3d
000002a0: b4e2 e7bc cbb6 64bd 41f2 73bc 789a 49bd
000002b0: 3d00 e0bc 7aff aa3c 7b22 b13c bd8e 6bbc
000002c0: 4ee7 53bc b974 4abd 8dce 373d 6ad3 dcbc
000002d0: 891c 093d 0602 703c 8604 fcbb c62a 4d3d
000002e0: c785 cd3c bf74 22bc 0713 2fbd ffb3 3dbd
000002f0: 50be 6cbd 511c 023d aa0d b23c 6505 bb3b
00000300: 3919 84bb 4600 b43b 35d9 873c 2a5f 14bd
00000310: f18d c2bb 10e7 4abd 8aa1 3fbd c9d3 fd3a
00000320: 603b 663b 8c90 41bd f8a8 e2bb 5310 2e3d
00000330: be7a 45bc bbdd cabc 14c0 6abd cdad 143d
00000340: 58fc 50bd 82da 813c 7b49 f9bc b153 123c
00000350: aa90 44bc 84d1 5abd bae0 163d 51f5 99bc
00000360: 6ac7 713c ffac 06bd d27e 08ba 0552 2d3d
00000370: 5576 573b 8ed4 a1bc 7115 bcbc 153c b63c
00000380: 6226 273d f4bd 98b9 2f4f 09bd 5931 b6bc
00000390: ea96 6abc 1637 d5bb 14d8 f33c b60c 553d
000003a0: e721 563d 6c73 a33c 3e65 9b3c 946c 273c
000003b0: 1f39 7a3c 3915 1cbd b687 483d a919 e5bc
000003c0: 8c79 2cbd b4bc febc 4a85 09bd 3e55 98bb
000003d0: 5c34 4a3c 97c8 193d d19d 3b3c e6c4 2bbd
000003e0: ec5f 0c3d cb8f 5b3d b14e 44bd e908 0e3d
000003f0: fa37 7f3c dcfd 02bd dec6 d6bc 6d4a 15bd

layer2.0.bn2.weight f4 [32]
1.0023997 1.0036241 1.0045837 1.005394 0.9971322 0.9982655 1.0013298 1.0006244
0.9985398 1.0004592 0.99718714 1.0064907 1.0036697 1.0052211 1.007215 1.0081456
0.997613 0.99735814 1.0003198 0.99688184 0.99788284 1.0034496 0.99598855 1.0004711
1.0001646 0.99814403 0.99691325 0.9970753 1.0032911 1.0012423 1.0056167 0.99781615
00000000: a24e 803f c176 803f 3396 803f c0b0 803f
00000010: 0e44 7f3f 548e 7f3f 932b 803f 7614 803f
00000020: 4ea0 7f3f 0c0f 803f a847 7f3f b0d4 803f
00000030: 4078 803f 16ab 803f 6cec 803f ea0a 813f
00000040: 9163 7f3f dd52 7f3f 7b0a 803f a633 7f3f
00000050: 4075 7f3f 0971 803f 1bf9 7e3f 700f 803f
00000060: 6505 803f 5e86 7f3f b535 7f3f 5440 7f3f
00000070: d86b 803f b528 803f 0cb8 803f e170 7f3f

layer2.0.bn2.bias f4 [32]
-0.000102193895 -0.0029128606 0.0053734253 0.0026412904 8.582639e-05 -0.007309292 -0.0016384604 0.0026365616
-0.0061457944 -0.000989757 -0.004789474 0.0036600803 0.0010187139 0.004189234 0.0054373657 0.0032614951
-0.0024550897 -0.00040197937 -0.0066160685 -0.0057096477 0.0029954242 0.0033292803 -0.002810374 -0.0066226334
0.00037049054 -0.0015688457 0.001238083 -0.004048606 -0.00022469115 -0.0034138837 0.006352219 0.00081601815
00000000: ee50 d6b8 b1e5 3ebb 8f13 b03b 8019 2d3b
00000010: b1fd b338 c982 efbb 9cc1 d6ba 2aca 2c3b
00000020: a962 c9bb bcba 81ba 05f1 9cbb f5dd 6f3b
00000030: 5e86 853a d845 893b ee2b b23b cfbe 553b
00000040: 92e5 20bb c2c0 d2b9 9bcb d8bb ff17 bbbb
00000050: e14e 443b 0e30 5a3b 402e 38bb ad02 d9bb
00000060: 663e c239 baa1 cdba 2c47 a23a 2baa 84bb
00000070: 129b 6bb9 77bb 5fbb 4626 d03b 0dea 553a

layer2.0.bn2.running_mean f4 [32]
0.14770333 -0.05085935 0.35797217 -0.073575504 0.12342828 -0.37237185 -0.20643252 0.12930621
-0.29977798 -0.334799 0.21535982 -0.023478178 0.711975 0.4607004 -0.63495326 0.09851452
0.23087277 -0.24795759 0.08594814 -0.39288342 0.025575481 0.058237597 0.040548466 0.07317012
-0.106513284 -0.20403793 0.21171719 0.36953145 0.34931466 -0.11753484 -0.23857163 -0.12365345
00000000: 8b3f 173e e551 50bd 2148 b73e c1ae 96bd
00000010: f7c7 fc3d 86a7 bebe 0c63 53be d968 043e
00000020: 807c 99be c66a abbe 4987 5c3e 4f55 c0bc
00000030: fe43 363f ece0 eb3e 4c8c 22bf fbc1 c93d
00000040: e969 6c3e 98e8 7dbe 9405 b03d 0428 c9be
00000050: ac83 d13c 8c8a 6e3d 2616 263d 37da 953d
00000060: a323 dabd 52ef 50be 64cc 583e 3a33 bd3e
00000070: 5fd9 b23e 1bb6 f0bd 1f4c 74be 053e fdbd

layer2.0.bn2.running_var f4 [32]
0.27423167 0.15199031 0.1726822 0.10788249 0.114554815 0.16244857 0.18526687 0.082327716
0.11538684 0.258451 0.22814357 0.32156724 0.110235624 0.23692161 0.14374083 0.18215561
0.16310066 0.069687076 0.14933577 0.2655013 0.12618443 0.12791534 0.04385473 0.08093097
0.108315274 0.104912244 0.16266422 0.16470297 0.09034064 0.1799427 0.19106713 0.25257623
00000000: 1868 8c3e 59a3 1b3e 9ad3 303e 7ff1 dc3d
00000010: b79b ea3d eb58 263e 99b6 3d3e 6f9b a83d
00000020: f04f ec3d b153 843e 789e 693e 76a4 a43e
00000030: 37c3 e13d 949b 723e cc30 133e 0087 3a3e
00000040: dc03 273e 19b8 8e3d 7aeb 183e c9ef 873e
00000050: 7e36 013e 3dfc 023e 04a1 333d 23bf a53d
00000060: 66d4 dd3d 3bdc d63d 7391 263e e5a7 283e
00000070: 8304 b93d e642 383e 1aa7 433e ac51 813e

layer2.0.downsample.0.weight f4 [32, 16, 1, 1]
0.029605422 -0.20011742 0.09094964 -0.22329253 0.015798148 0.23296423 -0.12767406 0.18224877
0.17576654 0.18200617 0.020765934 -0.16180094 0.0051522003 0.069632255 -0.12924407 -0.015130126
-0.15700924 0.15146086 -0.04307671 0.012750881 -0.072715454 0.016875055 0.0062286495 0.18968274
-0.012250467 -0.11718716 -0.03379647 -0.033925056 -0.061021306 0.04300055 0.119604446 0.091149524
0.081327066 0.14939569 0.11640542 -0.08353428 0.12669541 0.17927316 0.21404321 -0.11874811
0.16204804 -0.21704333 0.079572596 0.19124642 0.04018067 -0.24660453 0.11270422 0.062063985
-0.079625934 -0.11498947 0.18627116 -0.066711865 0.12882397 -0.017225929 0.15952832 -0.044558402
0.1381818 0.005548426 -0.16204374 -0.2030612 -0.14882095 -0.07292989 -0.088511124 0.08080861
0.21633358 0.22100517 -0.17411943 -0.038075425 -0.23689544 0.039118398 0.0725035 0.23981561
0.21495491 -0.18455671 -0.22501002 0.038467187 -0.12970643 0.04422572 0.056105882 0.06664955
0.1262607 0.06123766 0.05424534 -0.0103492895 -0.07102043 0.12754533 0.1707686 0.23793724
-0.087059066 0.12517571 -0.089384206 0.08889523 -0.041664798 -0.08370829 0.070322126 -0.0933523
0.21982737 0.09787986 0.013078413 -0.19136593 -0.11242517 -0.044819795 -0.14735667 -0.0145807145
0.24268453 0.13595633 -0.20510498 -0.014589185 0.19442329 -0.13190913 0.056384496 -0.10834989
0.09999635 0.20135859 0.073635556 -0.0409206 -0.048930522 -0.21475998 0.19151466 -0.18288495
-0.032715067 -0.06176515 -0.22764471 0.113187574 -0.06792619 -0.07406102 0.03275252 0.11553765
-0.0040079113 0.16366594 -0.20408852 0.23480599 0.20132424 0.14080429 -0.18482943 0.14962189
-0.23686261 0.15172762 -0.23182057 0.18807907 -0.07575418 0.16003615 0.15391956 -0.19276048
-0.029611496 0.03822019 0.1501287 0.15666802 0.21301045 0.19377658 0.18307063 -0.11669197
-0.14469932 0.18765676 0.11335283 -0.09875587 0.042553883 -0.080884434 0.1044581 -0.09196691
0.20656542 0.12981185 0.23850472 -0.023121761 0.16758169 0.18833746 0.17731735 0.22809368
-0.025956025 -0.23590429 -0.16446154 -0.24135326 0.09902948 0.054375496 0.21675447 -0.22649431
0.09875274 -0.1002424 0.07548759 -0.21807078 -0.04412457 0.1251872 -0.11782579 -0.0014920768
0.1805208 0.23857644 -0.105286576 -0.028667897 0.206108 -0.17984061 0.18018244 0.044502128
0.1506883 0.2057769 0.08984296 -0.08922526 -0.09201055 0.18334968 -0.0998925 0.11049023
-0.14735346 0.034233984 -0.240935 0.1103712 0.099928916 0.028562034 0.15456295 -0.1071651
0.21420273 0.21787375 -0.22967893 0.1235027 -0.049506146 -0.05314487 0.18185873 -0.13825777
-0.21361603 -0.09543192 -0.14500873 0.16395701 0.13279621 0.22554186 -0.1844453 0.17132352
-0.23748516 0.23028442 -0.0869764 0.15173638 0.056440424 0.12848462 -0.09923335 -0.045032926
-0.1037747 0.20916474 0.1888902 0.22386044 -0.09409794 0.13717718 0.15128669 -0.14915004
0.10138026 -0.07177072 0.21889974 0.14401188 -0.115459144 -0.06358395 -0.1536957 -0.058005773
-0.073103495 -0.033694707 -0.22049412 0.07864746 -0.097264715 -0.08119402 -0.11290934 -0.09286264
00000000: 1287 f23c 95eb 4cbe ce43 ba3d cca6 64be
00000010: 1e6b 813c 2d8e 6e3e fdbc 02be 6c9f 3a3e
00000020: 25fc 333e d35f 3a3e 521d aa3c 25af 25be
00000030: cad3 a83b 5b9b 8e3d 8f58 04be 59e4 77bc
00000040: 08c7 20be 8e18 1b3e 3471 30bd 12e9 503c
00000050: d7eb 94bd 8e3d 8a3c b319 cc3b 313c 423e
00000060: 2fb6 48bc d2ff efbd 2b6e 0abd 00f5 0abd
00000070: 7af1 79bd 5821 303d 2df3 f43d 9aac ba3d
00000080: ce8e a63d 2ffb 183e f765 ee3d 0514 abbd
00000090: 71bc 013e 6293 373e 252e 5b3e 3632 f3bd
000000a0: ecef 253e 9b40 5ebe f5f6 a23d 1ad6 433e
000000b0: 7c94 243d e685 7cbe 78d1 e63d ce36 7e3d
000000c0: ec12 a3bd 997f ebbd debd 3e3e 3ba0 88bd
000000d0: 6eea 033e 641d 8dbc 645b 233e df82 36bd
000000e0: 887f 0d3e 92cf b53b cbee 25be 46ef 4fbe
000000f0: 8564 18be 445c 95bd 5245 b5bd fc7e a53d
00000100: 8d86 5d3e 2e4f 623e 5d4c 32be faf4 1bbd
00000110: b894 72be 9d3a 203d b77c 943d 3992 753e
00000120: 241d 5c3e 6ffc 3cbe 0769 66be c58f 1d3d
00000130: c3d1 04be 0726 353d 48cf 653d 8f7f 883d
00000140: 7c4a 013e 57d4 7a3d 5d30 5e3d 1190 29bc
00000150: 2973 91bd 3e9b 023e f7dd 2e3e d2a5 733e
00000160: 064c b2bd 102e 003e 110f b7bd b40e b63d
00000170: b5a8 2abd 406f abbd 0c05 903d 7e2f bfbd
00000180: 6d1a 613e 3c75 c83d d746 563c 6ef5 43be
00000190: 2b3f e6bd f694 37bd abe4 16be f3e3 6ebc
000001a0: 4b82 783e 2338 0b3e 0a07 52be 7a07 6fbc
000001b0: e616 473e 3013 07be 6ef3 663d 8ce6 ddbd
000001c0: e3ca cc3d f230 4e3e 3dce 963d 5c9c 27bd
000001d0: 5f6b 48bd 0aea 5bbe 6b1c 443e 3146 3bbe
000001e0: 3c00 06bd 74fd 7cbd b21b 69be e3ce e73d
000001f0: e31c 8bbd 4ead 97bd 8227 063d 019f ec3d
00000200: cc54 83bb 0b98 273e 95fc 50be fb70 703e
00000210: f127 4e3e 002f 103e ed43 3dbe 7b36 193e
00000220: 1d8c 72be 7c5e 1b3e 5f62 6dbe cd97 403e
00000230: 0225 9bbd 84e0 233e 179d 1d3e 0163 45be
00000240: cf93 f2bc c68c 1c3d 57bb 193e 956d 203e
00000250: 691f 5a3e 5e6d 463e de76 3b3e 33fc eebd
00000260: 0f2c 14be 1829 403e 8725 e83d 8440 cabd
00000270: fb4c 2e3d bda6 a5bd 21ee d53d 2659 bcbd
00000280: e385 533e 66ed 043e 953a 743e d969 bdbc
00000290: 899a 2b3e 89db 403e ae92 353e 6491 693e
000002a0: bba1 d4bc e590 71be 9b68 28be 4f25 77be
000002b0: f8cf ca3d d7b8 5e3d e2f4 5d3e 20ee 67be
000002c0: e03e ca3d e34b cdbd 3d99 9a3d f24d 5fbe
000002d0: f7bb 34bd 1331 003e a64e f1bd ca91 c3ba
000002e0: 72da 383e 624d 743e 7da0 d7bd f0d8 eabc
000002f0: fa0d 533e 2328 38be bf81 383e dd47 363d
00000300: 094e 1a3e 2eb7 523e 96ff b73d bcbb b6bd
00000310: 0770 bcbd 05c0 3b3e 7094 ccbd b448 e23d
00000320: d3e3 16be ef38 0c3d aab7 76be 4c0a e23d
00000330: 88a7 cc3d edfa e93c c045 1e3e 6079 dbbd
00000340: f657 5b3e 4c1a 5f3e f430 6bbe fcee fc3d
00000350: f5c6 4abd 6fae 59bd 2d39 3a3e 7293 0dbe
00000360: 29be 5abe cf71 c3bd 2b7d 14be 59e4 273e
00000370: bbfb 073e 72f4 663e 3bdf 3cbe 6f6f 2f3e
00000380: 4f2f 73be aecf 6b3e af20 b2bd c860 1b3e
00000390: 132e 673d 7991 033e db3a cbbd 7274 38bd
000003a0: d487 d4bd 482f 563e 6f6c 413e ac3b 653e
000003b0: 6cb6 c0bd 2d78 0c3e e6ea 1a3e caba 18be
000003c0: 74a0 cf3d 87fc 92bd 4127 603e da77 133e
000003d0: d875 ecbd 4d38 82bd 6862 1dbe 7697 6dbd
000003e0: 49b7 95bd 7603 0abd 36c9 61be eb11 a13d
000003f0: b932 c7bd 0d49 a6bd 033d e7bd c52e bebd

layer2.0.downsample.1.weight f4 [32]
0.9980527 0.99810344 1.0045092 1.0050352 1.0000579 0.9975637 0.9960721 0.9980848
0.9962372 1.0028412 0.996454 0.9993806 0.9993106 0.99737906 0.99902004 0.99545157
0.99912864 1.0014217 0.9984895 0.99886805 1.0001209 1.0000861 0.9970366 0.9959278
1.0016072 0.9979897 0.9993782 0.9944416 0.998111 0.9942735 0.99900764 1.0003004
00000000: 6280 7f3f b583 7f3f c293 803f fea4 803f
00000010: e601 803f 5660 7f3f 95fe 7e3f 7c82 7f3f
00000020: 6709 7f3f 1a5d 803f 9c17 7f3f 68d7 7f3f
00000030: d2d2 7f3f 3c54 7f3f c7bf 7f3f ead5 7e3f
00000040: e5c6 7f3f 962e 803f 029d 7f3f d1b5 7f3f
00000050: f603 803f d202 803f ca3d 7f3f 20f5 7e3f
00000060: aa34 803f 417c 7f3f 40d7 7f3f ba93 7e3f
00000070: 3484 7f3f b588 7e3f f7be 7f3f d809 803f
