training/artifacts/checkpoints/smallresnet/best.pt (torch, 984930 bytes, 105 tensors)

conv1.weight f4 [16, 3, 3, 3]
0	0x3db745e8	0.089488804
1	0xbd381add	-0.044947494
2	0x3e294ef0	0.16534019
3	0x3e195136	0.14972386
4	0x3d9e4413	0.07727828
5	0x3e01d189	0.12677588
6	0xbe0c569c	-0.13704914
7	0xbe1ae1d4	-0.15125209
8	0x3c40ac32	0.011759805
9	0xbd34f709	-0.044180904
10	0xbe044208	-0.12915814
11	0x3e079cf2	0.13243464
12	0x3e17621d	0.14783521
13	0xbd1844bd	-0.03717493
14	0xbd82fc07	-0.06395727
15	0xbdab07eb	-0.083511196
16	0x3d5c96b3	0.053854655
17	0xbbfb1bad	-0.0076632113
18	0x3e280233	0.16407089
19	0x3d3aa9ce	0.045572095
20	0x3d6cbd8b	0.05779795
21	0xbd2c2125	-0.042023797
22	0xbda8f301	-0.08249474
23	0xbe182136	-0.14856419
24	0xbd911df0	-0.07085788
25	0x3dfff406	0.12497716
26	0x3e337aa6	0.17527255
27	0xbde4270f	-0.11140262
28	0xbded23d9	-0.11579103
29	0xbd908f04	-0.07058528
30	0xbda4d30a	-0.08048065
31	0x3d92e3b4	0.07172337
32	0xbdc2f39d	-0.09519122
33	0x3c5bec3c	0.013423022
34	0xbcd1eabd	-0.025624627
35	0x3dbd38b1	0.09239329
36	0xbc878160	-0.016541183
37	0xbcb2ec07	-0.021841062
38	0xbe183f66	-0.14867935
39	0x3da14d27	0.07876044
40	0x3df5f501	0.120096214
41	0x3e1def8e	0.15423414
42	0xbe053192	-0.13007191
43	0xbe1d4c0e	-0.15361044
44	0x3bffe2c2	0.007809014
45	0x3d38e206	0.045137428
46	0x3e2652ed	0.16242571
47	0x3cf1ef6e	0.029533114
48	0x3e374ce5	0.17900427
49	0x3df1c331	0.11804808
50	0x3d8f51ca	0.06998022
51	0xbe0b456a	-0.13600698
52	0x3e41c662	0.18923333
53	0x3dd98324	0.10620716
54	0x3e0b62d4	0.13611919
55	0x3e0a254e	0.13490793
56	0xbe1bfc9d	-0.15233083
57	0xbdc71a04	-0.09721759
58	0x3e25b688	0.16182911
59	0x3d859862	0.06523205
60	0x3d046f4c	0.032332703
61	0x3e32912f	0.17438196
62	0xbd933a44	-0.07188848
63	0xbe1b572c	-0.15169972
64	0x3e2262ad	0.15857954
65	0xbdf4beed	-0.11950479
66	0xbe3c1b02	-0.18369678
67	0x3db80edf	0.089872114
68	0xbcc50d14	-0.024054088
69	0x3ad597da	0.0016295866
70	0x3dce24ff	0.1006565
71	0xbdbc833d	-0.09204719
72	0x3c7ca175	0.015419354
73	0xbe1fb8c0	-0.1559782
74	0xbd98dfc9	-0.07464559
75	0xbe28fa7c	-0.16501802
76	0xbdc6bd81	-0.09704114
77	0xbe42ad38	-0.1901139
78	0xbdf63bde	-0.120231375
79	0x3cef584a	0.029216904
80	0xbc28e4de	-0.010308472
81	0x3b193d63	0.0023382537
82	0xbdd28ae1	-0.10280395
83	0xbbad3899	-0.005286288
84	0x3dc7ee3f	0.09762239
85	0xbd966e54	-0.07345262
86	0xbc1f90b4	-0.00973909
87	0x3e0f4136	0.1398972
88	0xbe0c51ae	-0.13703033
89	0x3e02b37f	0.12763785
90	0xbe3b1455	-0.18269475
91	0xbe230f20	-0.15923738
92	0x3e2210f9	0.15826787
93	0x3e2f070c	0.17092532
94	0x3e236da7	0.15959798
95	0xbd23f730	-0.04003066
96	0x3d89d83c	0.067306966
97	0x3bb2541d	0.005442156
98	0xbe30bcdf	-0.17259549
99	0x3c492743	0.012277427
100	0x3cdc1e22	0.026869837
101	0xbd1b8055	-0.037964184
102	0x3e198be6	0.14994773
103	0xbdf6f6b4	-0.12058774
104	0xbe13ee05	-0.14446266
105	0xbdfa3516	-0.122171566
106	0x3e3724be	0.1788511
107	0x3e24adbf	0.16081904
108	0x3e02387a	0.12716857
109	0x3e39186c	0.18075722
110	0x3de489a1	0.11159063
111	0xbbba483f	-0.005684882
112	0x3da8ea92	0.08247866
113	0x3e3ca251	0.18421294
114	0x3ce3fc93	0.027830398
115	0x3c03550b	0.008015881
116	0xbd24c6d5	-0.040228684
117	0x3e27d99d	0.16391607
118	0xbdc3b17b	-0.09555336
119	0x3e162bad	0.14665098
120	0x3df6e344	0.12055066
121	0xbe427543	-0.18990044
122	0x3de35f4c	0.11102161
123	0x3df9da71	0.121998675
124	0xbd7a82bd	-0.061159838
125	0x3e1d6908	0.15372097
126	0xbdaae47a	-0.0834436
127	0xbd0c226b	-0.03421251
128	0xbccaa330	-0.024736017
129	0xbd7eb878	-0.06218764
130	0xbe417698	-0.18892896
131	0x3e386868	0.18008578
132	0x3dc30ed2	0.09524311
133	0xbc4a1cd6	-0.012335977
134	0x3e33d3d3	0.17561273
135	0x3de018e4	0.109422475
136	0xbe363177	-0.17792307
137	0x3e2e3a7c	0.17014498
138	0x3d3bcdcf	0.04585057
139	0xbdecdace	-0.11565171
140	0x3d7675cb	0.06017093
141	0xbbbb0f06	-0.005708578
142	0x3dca699d	0.098834254
143	0xbcef0f17	-0.029182
144	0xbd8deeaf	-0.06930291
145	0xbe0da1d5	-0.13831265
146	0xbe10f888	-0.14157307
147	0xbe1da7eb	-0.15396087
148	0x3ddb6446	0.10712485
149	0x3dd624d5	0.10456244
150	0x3c5208ce	0.012819482
151	0x3e1273d4	0.14301997
152	0xbd63215e	-0.055451743
153	0xbde77914	-0.11302391
154	0x3dabdbdd	0.08391545
155	0x3dbaacf7	0.09115022
156	0x3cf56d7f	0.029959438
157	0xbe27891a	-0.16360894
158	0x3e0a6c59	0.13517894
159	0xbbe96768	-0.0071229227
160	0xbddb2e98	-0.107022464
161	0x3dbd5bc1	0.09246016
162	0xbd05bcc5	-0.032650728
163	0xbd6f68ec	-0.05844967
164	0xbe229f9b	-0.15881197
165	0xbdc38677	-0.095471315
166	0x3df84530	0.121225715
167	0xbc8bf3c7	-0.017084016
168	0xbe441445	-0.19148357
169	0xbd144898	-0.036202043
170	0xbe09133e	-0.13386247
171	0xbde49958	-0.111620605
172	0x3e24327e	0.16034886
173	0xbd2cabe4	-0.042156115
174	0xbd9cc29b	-0.076543055
175	0x3d9bfbf5	0.07616416
176	0x3e446ab1	0.19181325
177	0x3d23de99	0.040007208
178	0x3e38dc1f	0.1805272
179	0xbe313bcc	-0.17307967
180	0x3dac19a0	0.08403325
181	0x3e39406f	0.18090986
182	0x3da4b9e6	0.0804327
183	0xbd46beda	-0.048521854
184	0x3c6ec2a0	0.014572769
185	0x3e34ca7e	0.1765537
186	0xbe2d4e5c	-0.16924423
187	0xbde0d679	-0.109784074
188	0x3e0dd023	0.13848929
189	0x3dca1cdf	0.09868788
190	0xbd964a3f	-0.0733838
191	0x3df44153	0.11926522
192	0x3db7cb22	0.089742914
193	0x3da1d2a0	0.07901502
194	0xbda00c40	-0.078148365
195	0x3d948d14	0.07253471
196	0x3d76d7b7	0.060264315
197	0x3d0abfc0	0.033874273
198	0xbe213b4c	-0.15745276
199	0xbda094f9	-0.07840914
200	0xbe3a622d	-0.18201514
201	0x3e012c73	0.12614612
202	0x3e3feadd	0.18741937
203	0x3cfdfac9	0.031003373
204	0x3e11dd50	0.1424458
205	0x3cf9d7d0	0.030498415
206	0x3dab244e	0.08356534
207	0x3d70bcf0	0.058773935
208	0x3d06dc23	0.032924782
209	0xbd8497ba	-0.06474252
210	0xbaf056b1	-0.0018336383
211	0xbd19516d	-0.03743117
212	0x3d5c8102	0.05383397
213	0x3e2bd605	0.1678086
214	0xbe3cb5c1	-0.18428709
215	0xbe36da56	-0.17856726
216	0xbdd90402	-0.105964676
217	0xbbd3bfd5	-0.006462077
218	0xbcaba5b6	-0.02095304
219	0xbe29d6bd	-0.16585822
220	0xbdf16ff2	-0.1178893
221	0xbe2abf6c	-0.16674584
222	0xbdc8b909	-0.09800918
223	0x3d36a766	0.044593237
224	0xbd6b7559	-0.05748496
225	0x3d8d2435	0.068916716
226	0xbe1c86fe	-0.1528587
227	0xbe2cfee3	-0.16894107
228	0x3e08c559	0.13356532
229	0x3e165fdc	0.14685005
230	0x3e0134ca	0.12617794
231	0xbe1d26a6	-0.15346774
232	0xbc4391ec	-0.011936646
233	0xbe061fb4	-0.13098031
234	0xbcebb0f9	-0.02877091
235	0xbd99c847	-0.07508903
236	0x3e284b60	0.16435003
237	0xbd17b01f	-0.037033197
238	0x3e0d860a	0.13820663
239	0xbe33f5aa	-0.17574182
240	0x3e2d9d65	0.16954572
241	0xbe363a62	-0.17795709
242	0xbdf0a68a	-0.11750515
243	0xbe14ff79	-0.1455058
244	0x3d06fa73	0.03295369
245	0x3d6f3359	0.05839858
246	0xbc302c61	-0.010752768
247	0x3e17415c	0.14771026
248	0x3e43c667	0.19118653
249	0xbdbd0d90	-0.092311025
250	0xbe42024e	-0.18946192
251	0xbdd5ceb1	-0.10439814
252	0xbca9a4aa	-0.0207084
253	0x3cb2c2f9	0.021821486
254	0xbde1f5a2	-0.11033179
255	0xbd053a2d	-0.032526184

bn1.weight f4 [16]
0	0x3f7fef49	0.99974495
1	0x3f803b28	1.0018053
2	0x3f7fd74f	0.9993791
3	0x3f7fe2c2	0.9995538
4	0x3f802bbb	1.0013345
5	0x3f7fd74e	0.99937904
6	0x3f80022b	1.0000662
7	0x3f801e4d	1.0009247
8	0x3f7fc10b	0.99903935
9	0x3f804950	1.0022373
10	0x3f800931	1.0002805
11	0x3f7ffc3f	0.9999427
12	0x3f7fe140	0.9995308
13	0x3f7fe725	0.99962074
14	0x3f7feb6c	0.999686
15	0x3f801227	1.000554

bn1.bias f4 [16]
0	0x3a1b282c	0.0005918767
1	0x3a61a216	0.00086072215
2	0xba987421	-0.0011631289
3	0xba73552b	-0.00092824054
4	0x3a7e7e20	0.0009708125
5	0xba3ffa99	-0.0007323414
6	0xb9a0bab0	-0.0003065667
7	0x38abead2	8.197654e-05
8	0xba7ceb2a	-0.0009648079
9	0xb9aa14f9	-0.00032440553
10	0xba91dcf0	-0.0011128467
11	0x3a2cc403	0.00065904873
12	0x398cb22c	0.0002683563
13	0xb9e7ab7b	-0.00044187516
14	0xba53b08b	-0.0008075318
15	0x398fc32c	0.000274205

bn1.running_mean f4 [16]
0	0x3d938cb9	0.07204575
1	0x3e1091d2	0.14118126
2	0xbe339f28	-0.17541182
3	0x3ce9f4c6	0.0285591
4	0x3df49ee5	0.11944369
5	0x39038a8a	0.00012544743
6	0x3d7c0af4	0.061533883
7	0x3c93b4b1	0.018030496
8	0xbdd85889	-0.10563762
9	0x3b06d597	0.0020574087
10	0xbd3eacd5	-0.046551544
11	0x3b34745d	0.0027535178
12	0x3aaed112	0.0013337454
13	0xbc5ef7ab	-0.013608853
14	0xbc0825e2	-0.008309813
15	0x3d2f8608	0.04285243

bn1.running_var f4 [16]
0	0x3ea87f0c	0.3290943
1	0x3f2826ce	0.6568421
2	0x3f83109d	1.0239445
3	0x3d251248	0.040300637
4	0x4002c77f	2.0434263
5	0x3d1f5067	0.038895037
6	0x3ee3c7ae	0.4448828
7	0x3ecd7327	0.40126917
8	0x3fb5ffac	1.421865
9	0x3d2bf865	0.041984934
10	0x3de52637	0.111889295
11	0x3eff3cb9	0.49851015
12	0x3e2fa95b	0.17154448
13	0x3edfa40f	0.43679854
14	0x3ddee206	0.10882954
15	0x3ee49f38	0.44652724

layer1.0.conv1.weight f4 [16, 16, 3, 3]
0	0xbd8e5ab5	-0.06950895
1	0x3da6623f	0.08124208
2	0xbd6c3f2e	-0.05767744
3	0xbda75c39	-0.08171887
4	0xbc9291ff	-0.017891882
5	0x3d81f6db	0.06345912
6	0xbd90019e	-0.070315585
7	0xbcd892a8	-0.026437119
8	0xbb02bc9a	-0.001994884
9	0x3d6cb876	0.057793103
10	0x3d843910	0.06456196
11	0xbca0344f	-0.019556193
12	0xbd06ba54	-0.03289254
13	0xbb9d29b2	-0.0047962302
14	0xbd9ddd88	-0.07708269
15	0x3cb49101	0.0220418
16	0xbd9fd70f	-0.07804691
17	0xbc152d37	-0.009105018
18	0xbc8f23c1	-0.017473103
19	0x3d63f20e	0.055650763
20	0x3da6e845	0.08149771
21	0x3d013672	0.031546064
22	0xbc7d44d8	-0.015458308
23	0x3d1b7ae3	0.03795899
24	0xbd07c29b	-0.033144575
25	0x3d2de020	0.04245007
26	0xbd48077c	-0.048835263
27	0xbcb313a1	-0.021859946
28	0x3d7e490d	0.062081385
29	0xbd53c0bf	-0.05169749
30	0x3d1294d8	0.03578648
31	0x3d2b5903	0.041832935
32	0x3d9f7a04	0.077869445
33	0x3d60a6c1	0.05484653
34	0x3c2bc2ef	0.0104834875
35	0x3cd16933	0.025562858
36	0xbcd6f854	-0.026241459
37	0xbc5e8093	-0.013580459
38	0xbd6d54d9	-0.057942245
39	0x3d9e6b05	0.07735256
40	0xbbfe8cad	-0.0077682347
41	0xbd668f91	-0.05628926
42	0x3d9426f5	0.07233993
43	0xbd6b81e2	-0.057496913
44	0xbd527c71	-0.051388208
45	0xbd56d2a4	-0.052446976
46	0xbd183647	-0.037161138
47	0xbd214c77	-0.039379563
48	0x3d6f9813	0.05849464
49	0x3da2e60d	0.07954035
50	0x3c96030f	0.018312005
51	0x3d6957c2	0.056968458
52	0xbbd6c04b	-0.006553685
53	0x3c597c2b	0.013274233
54	0x3cb75c22	0.0223828
55	0x3c94041d	0.018068368
56	0xbc311d6c	-0.010810237
57	0xbd7a08e0	-0.06104362
58	0x3d82181f	0.06352257
59	0xbd5990f5	-0.053116757
60	0x3d9ae8f4	0.075639635
61	0xbd7d3226	-0.061815403
62	0xbd962c3e	-0.07332657
63	0x3cfa74d5	0.030573288
64	0x3da0eea6	0.078580186
65	0xbd314f0c	-0.043288276
66	0xbce9bfd3	-0.028533852
67	0xbcc36b10	-0.023854762
68	0x3d2dd83f	0.042442556
69	0xbd0995ea	-0.033590235
70	0x3da317a8	0.079634964
71	0xbbd14371	-0.0063862135
72	0xbd956032	-0.072937384
73	0xbc8df356	-0.017327946
74	0x3b923066	0.004461336
75	0x3caa283f	0.020771144
76	0xbd8f0813	-0.06983962
77	0xbd750e72	-0.05982823
78	0x3d3196c2	0.043356664
79	0xbd81dece	-0.06341325
80	0xbd49a550	-0.04922992
81	0xbc32e26a	-0.010918239
82	0xbd9ffc71	-0.07811821
83	0x3895751c	7.126687e-05
84	0xbd94e019	-0.07269306
85	0xbdaaa0d5	-0.083314575
86	0x3c8ae476	0.016954642
87	0xbc347e7a	-0.0110164825
88	0x3d815b8d	0.0631629
89	0xbd99c9ef	-0.07509219
90	0xbcb3969c	-0.021922402
91	0xbd6d83ea	-0.05798713
92	0xbd7790b4	-0.060440734
93	0x3d65cb1f	0.056101914
94	0xbda74824	-0.081680566
95	0x3d94f697	0.07273596
96	0xbd548b24	-0.051890507
97	0x3c0869de	0.008326022
98	0xbcc5ad07	-0.024130357
99	0x3d322016	0.04348763
100	0x3d22f2af	0.039782222
101	0x3c7f08ff	0.01556611
102	0xbd05cc0c	-0.032665297
103	0xbc843399	-0.016137885
104	0x3d7c3806	0.061576866
105	0xbd14848f	-0.03625923
106	0x3d80a4db	0.06281444
107	0x3c471ac8	0.012152381
108	0x3d9bb9d7	0.076038055
109	0xbd6f48a0	-0.05841887
110	0x3d3069e8	0.04306975
111	0x3d88eda6	0.06685953
112	0xbd5e5112	-0.054276533
113	0xbbd84c2d	-0.0066008777
114	0xbd3f1405	-0.04664995
115	0xbd4acf50	-0.049514115
116	0x3ca25f14	0.019820727
117	0x3ca11543	0.019663459
118	0x3b25e17c	0.00253114
119	0xbce840ab	-0.028351149
120	0x3d534867	0.05158272
121	0x3a3d75ee	0.0007227351
122	0xbd9c534e	-0.076330766
123	0x3da3b78f	0.079939954
124	0xbb9925f8	-0.0046737157
125	0xbd10d0a0	-0.03535521
126	0x3d9d6f67	0.07687264
127	0xbd6db003	-0.058029186
128	0x3d91bfc0	0.071166515
129	0x3d87803b	0.06616255
130	0xbce4873f	-0.027896522
131	0xbc9d1a13	-0.019177472
132	0xbd75fbcd	-0.06005459
133	0x3c98114e	0.018562939
134	0x3cc1e949	0.02367081
135	0x3d9f04fd	0.07764623
136	0x3cb2d3c2	0.02182949
137	0x3da39ebf	0.07989263
138	0x3d8784c7	0.06617122
139	0x3d9bc2b1	0.07605494
140	0xbcbd4ca8	-0.023107842
141	0xbd9d6e4c	-0.07687053
142	0xbd765366	-0.06013813
143	0xbd1124b6	-0.0354354
144	0x3c0e1b2c	0.0086734705
145	0xbd0a3c8f	-0.03374916
146	0xbdad9b34	-0.08476868
147	0xbc943c72	-0.018095229
148	0x3bd85141	0.006601483
149	0x3cfbb5c4	0.030726321
150	0x3d574d42	0.052563913
151	0xbc4484a8	-0.011994518
152	0xbd5e0453	-0.054203343
153	0x3c95388a	0.018215436
154	0xbb81a2e2	-0.0039561847
155	0xbd70e489	-0.058811698
156	0x3d79228a	0.060823955
157	0xbbe34c23	-0.0069365664
158	0x3d0b273c	0.033972964
159	0x3cfadd6a	0.030623157
160	0xbd2b7dab	-0.041867893
161	0x3d573c2b	0.052547615
162	0xbcff7373	-0.03118298
163	0xbd695656	-0.056967102
164	0xbd921bd9	-0.07134218
165	0x39a07599	0.00030605195
166	0x3cdc38c2	0.026882533
167	0xbd91380b	-0.070907675
168	0x3d665db6	0.056241713
169	0x3c9ae7e2	0.018909398
170	0x3d66574e	0.056235604
171	0x3bd24800	0.0064172745
172	0x3b6c7ff8	0.0036087018
173	0x3d4ae07f	0.049530502
174	0x3c1b63a1	0.009484203
175	0x3a8e2478	0.0010844609
176	0x3d1f89bd	0.038949717
177	0xbda2d252	-0.07950272
178	0x3d85ebec	0.06539139
179	0xbd5449e7	-0.05182829
180	0x3bf6f126	0.0075360714
181	0xbd1ecd96	-0.03877028
182	0xbcc23023	-0.023704594
183	0xbd998caa	-0.07497533
184	0xbd39e5bd	-0.04538511
185	0xbcc50a1f	-0.024052678
186	0xbda0596f	-0.07829558
187	0x3d079882	0.033104427
188	0x3d1f387f	0.03887224
189	0xbd45df2e	-0.048308544
190	0x3cf8b8ab	0.030361494
191	0xbd8271e0	-0.06369376
192	0xbd9a69cd	-0.07539711
193	0x3d09cd7c	0.03364323
194	0xbce63099	-0.028099345
195	0xbda11cfb	-0.07866856
196	0x3d4ef143	0.050523054
197	0x3d28f8be	0.041252844
198	0xbd8a3db7	-0.067500524
199	0x3c8d6b28	0.01726301
200	0xbd9b51d6	-0.07583968
201	0xbd8501b7	-0.06494468
202	0xbc7b58d7	-0.015341005
203	0xb8f0f5d4	-0.00011489881
204	0x3c80f7c2	0.01574314
205	0xbd0f54ba	-0.03499291
206	0x3d959641	0.07304049
207	0xbd747c17	-0.059688654
208	0x3c59bae3	0.013289186
209	0x3b688f40	0.0035485774
210	0x3d85b5f6	0.06528847
211	0xbd6531bd	-0.055955637
212	0xbd2f46b8	-0.042792052
213	0xbc88aa9e	-0.01668292
214	0x3c9c7497	0.019098563
215	0x3d1350ef	0.035965856
216	0xbd5ec8c9	-0.054390702
217	0x3c04acda	0.008097852
218	0x3c8baffe	0.017051693
219	0xbd8a89c2	-0.067645565
220	0x3d1df3e1	0.03856266
221	0x3d747527	0.059682038
222	0x3da41cf5	0.080133356
223	0x3cea8ef9	0.028632628
224	0x3b668b43	0.0035178221
225	0x3bc71694	0.0060756896
226	0xbd8cadf7	-0.06869119
227	0x3d40fda9	0.04711691
228	0x3da727f2	0.08161916
229	0x3d44db70	0.048060834
230	0x3d0d8061	0.03454626
231	0x3c5c87e4	0.013460133
232	0x3d9ac385	0.07556824
233	0xbc06a426	-0.008217847
234	0xbd646855	-0.05576356
235	0x3d595469	0.053059015
236	0x3d526e8a	0.05137495
237	0xbda100b6	-0.07861464
238	0xbc48839a	-0.0122384075
239	0x3b87b38c	0.0041412767
240	0xbd1d897f	-0.038461205
241	0x3ca7ba49	0.02047457
242	0xbcfb85bf	-0.030703424
243	0x3cdf7ab7	0.027280195
244	0xbd85a569	-0.0652569
245	0xbd38dced	-0.045132566
246	0x3d294e26	0.041334294
247	0x3da44177	0.08020299
248	0x3d16c43a	0.03680823
249	0xbd860cd2	-0.06545414
250	0xbd7a55ae	-0.061116867
251	0xbcd4e472	-0.025987837
252	0x3d8dfe9a	0.06933327
253	0xbd108a3d	-0.035288084
254	0xbd077da1	-0.033078793
255	0x3c245186	0.010029202

layer1.0.bn1.weight f4 [16]
0	0x3f800936	1.0002811
1	0x3f806c94	1.0033135
2	0x3f7fa5ae	0.9986218
3	0x3f7fe5c5	0.99959975
4	0x3f7fc1b7	0.9990496
5	0x3f8023c4	1.0010915
6	0x3f7fef5f	0.99974626
7	0x3f7feee4	0.99973893
8	0x3f7facef	0.9987325
9	0x3f7fcf67	0.99925846
10	0x3f8023a0	1.0010872
11	0x3f80117f	1.0005339
12	0x3f7fedef	0.9997243
13	0x3f7fe812	0.99963486
14	0x3f7ffd48	0.9999585
15	0x3f8025db	1.0011553

layer1.0.bn1.bias f4 [16]
0	0x3ab1d60c	0.0013567819
1	0x3aa0d10b	0.0012269331
2	0xbaa83637	-0.001283354
3	0xb8ab6e07	-8.1744096e-05
4	0xb99d3fd3	-0.00029992926
5	0xb98ce3a2	-0.0002687248
6	0xbab20204	-0.0013580923
7	0xbb055f79	-0.0020351096
8	0xba779f4b	-0.0009446039
9	0xbaa2c818	-0.0012419252
10	0x3a8d046b	0.0010758763
11	0x3a1c1c5b	0.0005955153
12	0x38794400	5.9429556e-05
13	0xb9341722	-0.00017174755
14	0x3a952be2	0.0011380876
15	0xba0483e4	-0.00050550536

layer1.0.bn1.running_mean f4 [16]
0	0xbd8cae1f	-0.068691485
1	0xbadcfde6	-0.0016860336
2	0xbecc8d7e	-0.399517
3	0x3d15e4b7	0.036595073
4	0x3ea693fe	0.32534784
5	0x3e1fe20c	0.15613574
6	0xbe2a88d6	-0.16653761
7	0x3e02b675	0.12764914
8	0xbea1989f	-0.31561753
9	0xbe1b8cf0	-0.15190482
10	0x3e0f1324	0.13972145
11	0xbe51deb8	-0.20495117
12	0xbe269d3b	-0.16270916
13	0x3ec31ce1	0.3810797
14	0xbe9b6c62	-0.30356127
15	0xbea883a6	-0.3291294

layer1.0.bn1.running_var f4 [16]
0	0x3dd21d84	0.10259536
1	0x3c960567	0.018313123
2	0x3d9e39c3	0.07725861
3	0x3d927b9a	0.071524814
4	0x3d7cbdab	0.06170432
5	0x3da428bb	0.08015581
6	0x3d1a550e	0.03767877
7	0x3e879e06	0.2648775
8	0x3e68829e	0.22706077
9	0x3d52f573	0.05150361
10	0x3e0b280a	0.13589492
11	0x3d303e86	0.043028377
12	0x3df7821b	0.120853625
13	0x3dc8ab11	0.09798253
14	0x3e1bb805	0.15206917
15	0x3da569c9	0.080768175

layer1.0.conv2.weight f4 [16, 16, 3, 3]
0	0x3cdc1dfc	0.026869766
1	0x3d54987e	0.05190324
2	0x3d8972fa	0.06711383
3	0xbd855d4d	-0.06511936
4	0x3c719282	0.014744403
5	0x3d90e71b	0.0707533
6	0x3d98d3ea	0.074622944
7	0x3d24a64b	0.04019765
8	0x3d4ccb01	0.049998287
9	0x3d8f3ce6	0.06994037
10	0x3d78f2a7	0.060778286
11	0xbda87f96	-0.0822746
12	0xbd5ce261	-0.05392683
13	0xbda9c82d	-0.082901336
14	0x3cc39e11	0.023879083
15	0x3d001692	0.031271525
16	0x3ca6a1d4	0.020340838
17	0x3d5f8c9b	0.05457745
18	0xb97a3f65	-0.00023865474
19	0xbdade8bd	-0.08491657
20	0x3d206eab	0.03916804
21	0xbd84c9f1	-0.0648383
22	0x3c960bc1	0.018316152
23	0x3d77e3b9	0.060519908
24	0xbda3b197	-0.07992857
25	0x3d6f1dc5	0.058378
26	0xbd2518fa	-0.040307023
27	0xbda6085c	-0.08107063
28	0x3d661129	0.05616871
29	0xbce4e6bf	-0.02794206
30	0xbd1a301b	-0.037643533
31	0xbc8ca2d4	-0.017167486
32	0xbc1f7138	-0.009731583
33	0x3d1db4f6	0.038502656
34	0xbaf1d68f	-0.0018450784
35	0x38903d8c	6.877919e-05
36	0xbcac3c87	-0.021024955
37	0xbd2737c9	-0.040824685
38	0xbd627288	-0.055285007
39	0x3c4431a7	0.011974729
40	0xbd3e58b9	-0.04647133
41	0xbc6b7bb5	-0.014372756
42	0xbcdc7517	-0.026911302
43	0x3cb5d681	0.02219701
44	0xbd856c60	-0.065148115
45	0xbd82d058	-0.06387395
46	0x3d68bfc0	0.056823492
47	0x3d775ddd	0.06039225
48	0xbd845883	-0.06462195
49	0xbcac21e5	-0.021012256
50	0xbd14c3fa	-0.03631971
51	0x3c42d8fa	0.011892552
52	0xbc8893c1	-0.016672017
53	0x38a9285a	8.066064e-05
54	0x3d047760	0.032340407
55	0xbbb3ac62	-0.005483196
56	0x3c16398c	0.009168994
57	0xbb8f6bd2	-0.004376867
58	0x3d6ba21d	0.05752765
59	0x3d0fd004	0.03511049
60	0x3b25e86b	0.0025315534
61	0xbd295c56	-0.041347824
62	0xbca6238c	-0.020280622
63	0xbda5626b	-0.08075412
64	0x3d62615e	0.055268638
65	0x3d80febd	0.062985875
66	0xbd1a68f7	-0.03769776
67	0xbda52974	-0.08064547
68	0xbd255ea9	-0.040373478
69	0xbc20091c	-0.009767797
70	0x3d4f9724	0.05068125
71	0xbd766adc	-0.060160503
72	0xbda2f208	-0.0795632
73	0xbda24f94	-0.079253346
74	0xbd38c3cd	-0.045108605
75	0x3d5b4129	0.05352894
76	0xbd83417f	-0.06408977
77	0x3cc871fb	0.024468413
78	0x3da1748d	0.078835584
79	0x3d2a0997	0.04151305
80	0xbda6cbb9	-0.08144326
81	0x3d349830	0.04409045
82	0x3d7d1c17	0.061794367
83	0x3cf87f0a	0.030334014
84	0x3d82ab4c	0.063803285
85	0xbcb55e6a	-0.022139747
86	0x3d9e286e	0.07722555
87	0x3d62587b	0.055260163
88	0x3d51c026	0.051208638
89	0xbd432d72	-0.047650762
90	0xbc6dc2b1	-0.01451175
91	0x3be65a73	0.0070298254
92	0x3c8ee888	0.017444864
93	0xbcf50cef	-0.029913394
94	0xbcb7ff6f	-0.022460667
95	0xbd49eb2b	-0.04929654
96	0x3da8b175	0.08236972
97	0x3ca11b4a	0.019666333
98	0x3bb2e11b	0.0054589636
99	0x3d64f2a8	0.055895478
100	0xbd816533	-0.0631813
101	0x3d87c0db	0.06628581
102	0xbc713771	-0.014722691
103	0x3d192a8c	0.03739409
104	0xbce2e590	-0.027697355
105	0x3d1c5015	0.03816231
106	0x3da92c83	0.08260443
107	0xbd41e270	-0.04733509
108	0xbd7e0980	-0.06202078
109	0x3d981479	0.0742578
110	0x3d93c36b	0.072150074
111	0x3b29ae90	0.00258914
112	0x3d88e1f2	0.06683721
113	0xbd8558b5	-0.0651106
114	0xbd3a0d6c	-0.045422956
115	0xbd899f5e	-0.0671985
116	0x3c222220	0.009895831
117	0xbd64922e	-0.05580347
118	0x3d97b02f	0.07406651
119	0xbd58e18a	-0.052949466
120	0x3c6c1992	0.014410393
121	0x3cc3b410	0.023889571
122	0xbc914bd1	-0.017736347
123	0x3d9a945b	0.07547828
124	0x3b11cfd7	0.0022249126
125	0xbd18dc25	-0.03731932
126	0xbc4d06e5	-0.012513851
127	0x3dab2cde	0.08358167
128	0x3d369344	0.044574037
129	0x3c80e308	0.015733257
130	0xbcf59a10	-0.02998069
131	0x3d8c90d2	0.0686356
132	0x3da79522	0.08182742
133	0x3d3272d5	0.043566544
134	0x3d30d553	0.04317219
135	0xbd120483	-0.035648834
136	0xbd3163ed	-0.043308187
137	0x3cc3d999	0.02390747
138	0xbcade600	-0.021227837
139	0x3cdd5e7c	0.027022593
140	0x3ad32178	0.0016107997
141	0x3d9d3c66	0.07677536
142	0x3d7dd14d	0.061967183
143	0xbce0dab4	-0.027448036
144	0xbd1afdd4	-0.037839726
145	0x3c1cac93	0.009562629
146	0xbd1e3d5f	-0.038632747
147	0xbbf97e97	-0.0076139676
148	0xbd08067c	-0.03320931
149	0x3d06111f	0.03273117
150	0x3cd37753	0.025813734
151	0x3d8a4905	0.067522086
152	0xbd1df7dd	-0.03856646
153	0x3da2f633	0.07957115
154	0x3ca18d7a	0.019720782
155	0x3d98a633	0.07453575
156	0xbd60c85c	-0.054878578
157	0x3d87f0d3	0.066377304
158	0xbd8741a8	-0.0660432
159	0xbda2ce1c	-0.079494685
160	0xbd3683a1	-0.044559125
161	0xbd093935	-0.033501823
162	0x3d07aeea	0.033125795
163	0x3d588f57	0.052871075
164	0x3c6b5b90	0.014365092
165	0x3d9a2be3	0.07527902
166	0x3cf0b0f2	0.02938125
167	0xbc618bd4	-0.013766248
168	0xbd60e329	-0.054904137
169	0x3ba06109	0.00489438
170	0xbd02ef1a	-0.031966306
171	0x3da23824	0.07920864
172	0x3d718674	0.058966115
173	0xbda3b6d7	-0.07993858
174	0x3d26a36d	0.0406832
175	0xbcf40b8a	-0.029790659
176	0x3d33a65e	0.043859832
177	0x3d53a5c7	0.05167177
178	0x3daadde8	0.083431065
179	0x3d962d89	0.07332904
180	0xbc9af310	-0.01891473
181	0xbd299b82	-0.04140807
182	0x3d5f9141	0.054581884
183	0x3da5671d	0.08076308
184	0xbd2a1ee9	-0.041533384
185	0xbd294cab	-0.041332882
186	0x3d7bd74b	0.061484616
187	0xbd88b583	-0.066752456
188	0x3d82a715	0.063795246
189	0x3cc3c853	0.023899233
190	0x3d96a439	0.07355542
191	0xbc67e57e	-0.014153836
192	0xbbfb639a	-0.0076717855
193	0xbc4a3e3b	-0.012343938
194	0xbd021264	-0.03175582
195	0x3cfc53ec	0.030801736
196	0xbd8f8506	-0.07007794
197	0xbc9f0a45	-0.019414077
198	0xbd902fc1	-0.07040358
199	0xbd0a1ee8	-0.03372088
200	0x3d65caeb	0.05610172
201	0x3d36c961	0.044625644
202	0x3b894577	0.004189189
203	0x3d9d0918	0.0766775
204	0xbd8273ef	-0.06369769
205	0x3d9c3760	0.076277494
206	0x3d3fa3d1	0.046787087
207	0xbc2f5727	-0.010701931
208	0xbd21ae9a	-0.039473154
209	0x3d2fc3fa	0.042911507
210	0xbd96720c	-0.073459715
211	0x3c5cf28e	0.013485564
212	0x3d9f52dc	0.07779476
213	0xbd166e06	-0.03672602
214	0xbd24d0c8	-0.04023817
215	0x3c3b8739	0.011445814
216	0x3d547570	0.05186981
217	0xbd1c400b	-0.038147014
218	0xbd6eb6a1	-0.058279637
219	0x3d9b10ca	0.07571562
220	0x3b3ec4aa	0.002910892
221	0x3da7bfda	0.0819089
222	0xbd624549	-0.055241857
223	0x3b747463	0.0037300817
224	0xbc948baf	-0.018133013
225	0xbd85d443	-0.06534626
226	0x3d8431a6	0.06454782
227	0x3d79c7ee	0.060981683
228	0xbd0ea0ab	-0.034821194
229	0x3cd9aaa9	0.026570635
230	0xbda274d3	-0.07932439
231	0x3d048870	0.03235668
232	0xbd5916dc	-0.053000316
233	0xbc42a27f	-0.011879562
234	0x3c5f0f3b	0.013614471
235	0xbd46d250	-0.048540413
236	0xbd34c2c0	-0.04413104
237	0xbd1228a2	-0.03568328
238	0x3d9ddbd7	0.07707947
239	0x3c0e0ca9	0.008670011
240	0xbd918aee	-0.07106577
241	0xbd6e0bb6	-0.058116637
242	0x3d13475a	0.035956718
243	0x3d32ab2d	0.043620277
244	0xbd581202	-0.05275155
245	0xbd9cbecd	-0.0765358
246	0xbd4f4e00	-0.050611496
247	0x3d35ea78	0.04441306
248	0xbd41463c	-0.04718612
249	0x3d7e45f4	0.06207843
250	0xbb846bba	-0.0040411623
251	0x35bc6638	1.4036841e-06
252	0xbbb9cc94	-0.0056701396
253	0xbbd9894f	-0.006638683
254	0xbc646374	-0.013939727
255	0x3ca4e739	0.020129787

layer1.0.bn2.weight f4 [16]
0	0x3f7fad07	0.99873394
1	0x3f801794	1.0007195
2	0x3f7f9495	0.99836093
3	0x3f7fb895	0.99891025
4	0x3f7ff85e	0.99988353
5	0x3f7fc8a9	0.9991556
6	0x3f8015a0	1.00066
7	0x3f8003cf	1.0001162
8	0x3f801d31	1.0008909
9	0x3f800567	1.0001649
10	0x3f801f57	1.0009564
11	0x3f7fa0fa	0.99855006
12	0x3f7f8b7c	0.9982221
13	0x3f8000cf	1.0000247
14	0x3f7ffd78	0.9999614
15	0x3f8021fd	1.0010372

layer1.0.bn2.bias f4 [16]
0	0xb99aff5d	-0.0002956343
1	0x399d3b05	0.00029989347
2	0xbadb61c6	-0.0016737513
3	0xba68cad6	-0.00088803226
4	0xb9ba7856	-0.00035566342
5	0xbae09cfc	-0.0017136629
6	0x3b00942b	0.0019619565
7	0xba89dc97	-0.0010518011
8	0xba9393cd	-0.0011259258
9	0xbaef0059	-0.0018234357
10	0x3a2a4725	0.0006495587
11	0xba79c7d8	-0.0009528375
12	0xba226808	-0.00061953114
13	0xb9c08d03	-0.00036726156
14	0xb90d6c69	-0.00013487194
15	0x3a3fd12e	0.0007317242

layer1.0.bn2.running_mean f4 [16]
0	0x3e2b7ddb	0.16747229
1	0x3ccfdb8f	0.025373248
2	0xbf08fd46	-0.53511465
3	0x3cf890b4	0.030342437
4	0xbd96bee2	-0.07360627
5	0xbe83c408	-0.25735497
6	0x3e5476f7	0.20748506
7	0x3eb3d3af	0.3512244
8	0xbe30895a	-0.17239895
9	0xbe40afa5	-0.18817003
10	0xbe539fc9	-0.20666422
11	0xbe978210	-0.29591417
12	0x3e54036c	0.2070443
13	0x3e11b372	0.14228609
14	0x3f1b1877	0.60584205
15	0x3d8b7c5e	0.068108305

layer1.0.bn2.running_var f4 [16]
0	0x3e0cae23	0.13738303
1	0x3e01991c	0.12656063
2	0x3db9cec1	0.09072638
3	0x3dadf9af	0.08494889
4	0x3e04a27d	0.1295261
5	0x3da3e654	0.08002916
6	0x3d7453d2	0.05965025
7	0x3d8f5553	0.06998696
8	0x3df650b9	0.120271154
9	0x3d2feb3c	0.042948946
10	0x3de2e5eb	0.110790096
11	0x3e7c089f	0.24612664
12	0x3df7750c	0.12082872
13	0x3dda58ed	0.106614925
14	0x3ecce85c	0.40021026
15	0x3d49ab6c	0.049235746

layer2.0.conv1.weight f4 [32, 16, 3, 3]
0	0xbd81a397	-0.063300304
1	0xbd9f96a7	-0.077924065
2	0x3b8b7840	0.0042562783
3	0x3cca85bd	0.024721975
4	0xbd821025	-0.063507356
5	0xbbf4875e	-0.007462426
6	0x3d249a33	0.04018612
7	0x3d35b7f7	0.044364896
8	0x3d4b6b4f	0.049662884
9	0xbda94fcb	-0.082671724
10	0x3d558573	0.05212922
11	0xbbcea6da	-0.0063065113
12	0x3b8c8cb6	0.004289235
13	0xbda07ae1	-0.07835937
14	0x3d04035c	0.032229766
15	0xbce27372	-0.02764294
16	0x3d9caf94	0.07650676
17	0x3cf24734	0.029574968
18	0x3da2b146	0.079439685
19	0xbc3687d8	-0.011140786
20	0xbce49895	-0.027904788
21	0x3d234264	0.039858237
22	0x3d678d3c	0.056531176
23	0x3cde2e68	0.027121738
24	0xbcbeaf04	-0.023276813
25	0xbd4df6a7	-0.050284054
26	0xbc231888	-0.009954579
27	0xbd83f38c	-0.06442937
28	0xbd5fca7b	-0.05463646
29	0x3d4c4441	0.04986978
30	0xbd27770b	-0.040885013
31	0x3d57ef64	0.052718535
32	0x3d9221ab	0.07135328
33	0xbda364d1	-0.079782136
34	0xbac8478c	-0.0015280112
35	0x3cc6b85e	0.024257835
36	0x3d6875df	0.056753036
37	0xbd1c3d6b	-0.03814451
38	0xbb2e9972	-0.0026641754
39	0xbb2889d2	-0.0025716913
40	0x3d5cd7c8	0.053916723
41	0xbcb37cc7	-0.021910084
42	0xbd80d2ea	-0.06290229
43	0xbb9dc158	-0.004814308
44	0xbd44d1a8	-0.048051506
45	0x3d37c8d3	0.044869255
46	0xbd0a565c	-0.033773765
47	0xbd63271d	-0.055457223
48	0xbda14e6c	-0.07876286
49	0x3c1735d0	0.0092291385
50	0xbcbb94bc	-0.02289807
51	0xbd670cae	-0.056408577
52	0x39e94236	0.00044490554
53	0x3c621b0a	0.013800392
54	0x3c07d663	0.00829086
55	0xbd1d7f54	-0.038451508
56	0xbd18105f	-0.037124988
57	0x3ccdae90	0.025107652
58	0x3d04c2d2	0.032412358
59	0xbd72e209	-0.059297595
60	0x3d7a84be	0.06116175
61	0x3c794104	0.015213255
62	0xbc958dd6	-0.01825611
63	0xba630829	-0.0008660579
64	0xbcc95377	-0.024575932
65	0xbd9a7898	-0.07542533
66	0xbd69004e	-0.056885056
67	0x3d235269	0.039873514
68	0xbd7c2637	-0.061559882
69	0xbc9148c3	-0.01773489
70	0xbd4f1eff	-0.05056667
71	0x3d549375	0.05189844
72	0x3d370f7d	0.044692505
73	0x3a4a1039	0.0007708106
74	0x3d8ef72c	0.06980738
75	0xbd6271fa	-0.055284478
76	0x3c81472b	0.015781006
77	0x3d3c9aa1	0.046045903
78	0xbd1093a9	-0.03529707
79	0xbc8cfde3	-0.017210906
80	0x3d2de6ba	0.042456366
81	0x3d400fd6	0.046890102
82	0x3cfdbb46	0.030973088
83	0xbd04dc26	-0.032436512
84	0x3d87f8d3	0.06639256
85	0xbcb1001c	-0.021606497
86	0x3ce47150	0.027886063
87	0x3d9ce2e4	0.076604635
88	0x3d8e2106	0.069398925
89	0xbaee046c	-0.0018159277
90	0x3d01364a	0.031545915
91	0x3d98638e	0.074408635
92	0x3d7e3773	0.0620646
93	0x3cd5e280	0.02610898
94	0xbc14441a	-0.00904944
95	0xbca2c782	-0.019870523
96	0xbc276f3a	-0.01021939
97	0x3d95dfa5	0.073180474
98	0x3c9535a6	0.018214058
99	0xbda600b0	-0.081056
100	0x3d79553e	0.06087231
101	0x3da87a64	0.08226469
102	0xbd3eb188	-0.046556026
103	0x3d5d81a1	0.054078702
104	0x3d1f5a58	0.038904518
105	0xbd9f87b5	-0.07789556
106	0x3d997ed2	0.07494892
107	0xbb6d8872	-0.0036244658
108	0x3d654e0a	0.055982627
109	0x3d4b1ebb	0.049589854
110	0xbd015e26	-0.031583928
111	0xbd59efec	-0.053207323
112	0x3c1917ed	0.009344083
113	0xbd877831	-0.066147216
114	0xba7d0563	-0.0009651987
115	0x3d76934b	0.060199063
116	0x3d812aca	0.063069895
117	0x3d7c79fe	0.06163978
118	0x3d8777a5	0.06614617
119	0x3d051209	0.032487903
120	0x3ca0cb94	0.019628324
121	0xbd8ea94d	-0.06965885
122	0xbae6ba8a	-0.00176032
123	0xbd6e6a06	-0.05820658
124	0xbd41af16	-0.047286116
125	0xbd9e88ce	-0.07740937
126	0x3d7a73ae	0.061145477
127	0x3dabed3a	0.08394857
128	0x3cfa52e4	0.030557103
129	0xbd191a15	-0.03737839
130	0x3d119dcb	0.035550874
131	0xbcd2fb42	-0.025754575
132	0x3ca82fc7	0.020530595
133	0x3d156fa2	0.036483414
134	0xbd464a19	-0.04841051
135	0xbd80ac02	-0.06282808
136	0x3d3251b3	0.043534946
137	0x3d8a7bfc	0.067619294
138	0xbd45cd16	-0.04829129
139	0xbd669421	-0.05629361
140	0x3b58cff6	0.0033082939
141	0x3d146a9f	0.036234494
142	0xbcf147ba	-0.029453147
143	0x3d336732	0.043799587
144	0x3becaf12	0.0072230184
145	0xbd83f45f	-0.064430945
146	0x3b5e4fda	0.0033922107
147	0xbd3eab56	-0.046550117
148	0xbd142f38	-0.036177844
149	0xbd8b8d5d	-0.06814072
150	0xbc820cf8	-0.015875325
151	0x3d44a252	0.048006363
152	0x3da86482	0.08222295
153	0x3d47d6a1	0.04878867
154	0x3d6ca109	0.057770763
155	0xbcee4d2b	-0.02908953
156	0x3d4295e1	0.047506217
157	0xbd1b4963	-0.037911784
158	0xbd085d19	-0.03329191
159	0xbbccaa4b	-0.0062458864
160	0x3d62688d	0.05527549
161	0x3d2a2c64	0.04154624
162	0xbd10a00f	-0.035308894
163	0x3da948c1	0.0826583
164	0x3cccaf97	0.024986072
165	0xbcb632ef	-0.022241084
166	0xbd35c9e0	-0.044381976
167	0xbd34eb07	-0.044169452
168	0xbd360804	-0.044441238
169	0x3d65e92f	0.056130584
170	0xbd037298	-0.032091707
171	0xbb446423	-0.0029966913
172	0x3bb1f84f	0.005431212
173	0x3d503fa8	0.050841957
174	0x3d64fe00	0.055906296
175	0x3d8ede2e	0.06975971
176	0xbd5cb4cc	-0.05388336
177	0xbccff334	-0.025384523
178	0x3d5fefa1	0.054671887
179	0x3d1e005e	0.03857457
180	0x3d81ea4b	0.06343516
181	0xbcc617d5	-0.024181286
182	0xbda7ebe0	-0.081992865
183	0x3d0faee8	0.035078913
184	0x3da6218c	0.08111867
185	0x3d2082c5	0.03918721
186	0xbb1ed47c	-0.0024235537
187	0x3da58c8e	0.08083449
188	0xbd897ff4	-0.06713858
189	0xbd2b8844	-0.041878
190	0x3c572975	0.013132443
191	0x3cb8d9ff	0.022564886
192	0xbc28b0d9	-0.01029607
193	0xbd01423c	-0.031557307
194	0xbc924fd4	-0.01786033
195	0x3da48cfe	0.080347046
196	0x3cbbc8b4	0.022922851
197	0x3c691115	0.014225264
198	0xbb3cd375	-0.0028812562
199	0xbd9227a7	-0.07136469
200	0x3d6c4195	0.05767973
201	0x3d804675	0.062634386
202	0x3d21b323	0.03947748
203	0x3c31da2d	0.01085524
204	0xbda38f32	-0.07986297
205	0xbd8d0c4d	-0.06887112
206	0xbd0aef5d	-0.03391968
207	0xbd80bc3c	-0.06285903
208	0x3d55e864	0.052223578
209	0x3d3cfc90	0.0461393
210	0xbb690bcf	-0.0035560017
211	0xbd6b4b19	-0.057444666
212	0xbbaa31c3	-0.0051939203
213	0xbd05f2da	-0.032702304
214	0xbd28c298	-0.041201204
215	0xbd346437	-0.044040885
216	0x3d546a5b	0.05185924
217	0x3d70ad72	0.05875916
218	0xbc7bc779	-0.015367382
219	0x3d955bb9	0.07292885
220	0x3cdcdfba	0.02696215
221	0xbda27c54	-0.0793387
222	0x3c464401	0.012101174
223	0x3af9ee6e	0.001906825
224	0xbd75a714	-0.05997379
225	0xbbbe4f8c	-0.0058078226
226	0x3cb83380	0.022485495
227	0x3daccdf7	0.08437722
228	0x3d9cfdf6	0.07665627
229	0xbc4bcd3a	-0.012439067
230	0x3d9114ac	0.07084021
231	0xbc465cbc	-0.012107071
232	0xbd73440f	-0.059391078
233	0x3d893ba7	0.06700831
234	0x3b54ab87	0.003245087
235	0x3d867d3c	0.06566855
236	0x3cdabf58	0.026702568
237	0xbd8a948b	-0.067666136
238	0xbba737c8	-0.005103085
239	0x3d7372d1	0.05943567
240	0x3c167482	0.009183051
241	0xbd288f0f	-0.041152056
242	0x3d92308c	0.07138166
243	0xbd9b96e2	-0.07597138
244	0x3d3dbf9a	0.046325304
245	0x3d9761bd	0.07391689
246	0xbca44112	-0.02005056
247	0xbd88e9ae	-0.06685196
248	0x3da4e26b	0.08050998
249	0xbd40453f	-0.04694104
250	0x3d86e51c	0.06586668
251	0x3c7458ca	0.014913747
252	0xbd1eeb1b	-0.038798433
253	0x3d9dc760	0.077040434
254	0x3c8f471e	0.017489966
255	0xbcd8a37c	-0.026445143

layer2.0.bn1.weight f4 [32]
0	0x3f7fac5e	0.99872386
1	0x3f80328e	1.0015428
2	0x3f8022bb	1.0010599
3	0x3f800bae	1.0003564
4	0x3f8008d2	1.0002692
5	0x3f7fbdf3	0.99899215
6	0x3f7f87bc	0.9981649
7	0x3f7fae37	0.99875206
8	0x3f7fcf3a	0.9992558
9	0x3f800531	1.0001584
10	0x3f7fb40e	0.99884117
11	0x3f7fcdd2	0.9992343
12	0x3f801980	1.0007782
13	0x3f80087c	1.0002589
14	0x3f7f7f0d	0.9980324
15	0x3f7fae7c	0.9987562
16	0x3f8042e8	1.0020418
17	0x3f8023ef	1.0010966
18	0x3f801512	1.000643
19	0x3f801f7d	1.000961
20	0x3f7fd675	0.9993661
21	0x3f7fd6fa	0.99937403
22	0x3f800213	1.0000633
23	0x3f7ffbc6	0.9999355
24	0x3f8039fe	1.0017698
25	0x3f801d3d	1.0008923
26	0x3f8010a1	1.0005075
27	0x3f8005b9	1.0001746
28	0x3f80323a	1.0015328
29	0x3f7fe54c	0.99959254
30	0x3f7fab8d	0.9987114
31	0x3f7fe10e	0.9995278

layer2.0.bn1.bias f4 [32]
0	0xb9e943d2	-0.00044491753
1	0x3aae1520	0.0013281442
2	0x39a09cc6	0.00030634383
3	0x38a8d3dc	8.050326e-05
4	0x3a1bb875	0.0005940267
5	0xba15b02e	-0.0005710152
6	0xbb119620	-0.0022214726
7	0x3a23a76a	0.0006242903
8	0xba3c76e0	-0.00071893446
9	0xb943544d	-0.00018628054
10	0xb9efa372	-0.0004570741
11	0x3a30922f	0.000673565
12	0x388fa351	6.8491914e-05
13	0xb9e96368	-0.00044515287
14	0xb9e2e38a	-0.0004327561
15	0x39f03e1a	0.00045822636
16	0x3a499d9a	0.0007691026
17	0xba46cf64	-0.0007584004
18	0x399fb7e2	0.00030463847
19	0xbaa28c6a	-0.0012401466
20	0x39e78af0	0.0004416327
21	0xb891e030	-6.955897e-05
22	0x39f4da38	0.00046701892
23	0xba86d215	-0.0010285998
24	0x3ae3c3f4	0.0017377124
25	0x3a46b102	0.0007579477
26	0x3a09bffa	0.0005254742
27	0xb9bb0672	-0.00035672222
28	0x3a878dec	0.0010341979
29	0xbaa2cd5a	-0.0012420819
30	0xbb16d6aa	-0.0023016133
31	0xba817116	-0.0009875621

layer2.0.bn1.running_mean f4 [32]
0	0x3ea12f6d	0.31481495
1	0x3e830dc0	0.25596428
2	0xbc95cb08	-0.01828529
3	0xbd8cca75	-0.06874553
4	0x3e5cbb17	0.21555744
5	0xbf444003	-0.76660174
6	0x3e8bf719	0.27336958
7	0xbe720dca	-0.23638073
8	0x3f130fd8	0.5744605
9	0xbdefdb21	-0.117117174
10	0x3dd3ac69	0.10335619
11	0x3ef6b08e	0.48181576
12	0xbe40425c	-0.18775314
13	0x3d58472f	0.05280226
14	0x3f2f39c8	0.6844754
15	0xbe722677	-0.23647486
16	0xbe51c790	-0.20486283
17	0x3e6b85f7	0.23000322
18	0xbf629e39	-0.8852268
19	0xbee204f4	-0.44144404
20	0xbd057816	-0.032585226
21	0x3e478a85	0.19486435
22	0xbef3d441	-0.47622874
23	0x3ea027dd	0.31280413
24	0x3d39cf33	0.045363616
25	0xbe79e981	-0.24405481
26	0xbe1ce1a0	-0.15320444
27	0xbdb1aa51	-0.086750634
28	0x3ee7fbd8	0.4530933
29	0xbbb0733d	-0.005384831
30	0xbee0a824	-0.4387828
31	0x3f04c57d	0.51863843

layer2.0.bn1.running_var f4 [32]
0	0x3e6f977f	0.23397635
1	0x3e413307	0.18867122
2	0x3db08cc4	0.08620599
3	0x3e536155	0.20642598
4	0x3e2a7dbb	0.16649525
5	0x3e614351	0.21998335
6	0x3dbf995e	0.09355424
7	0x3eb5b7e3	0.35491857
8	0x3ecbbbd2	0.39791733
9	0x3e2c9cad	0.16856642
10	0x3e6ba271	0.23011185
11	0x3e828017	0.2548835
12	0x3d6b8971	0.05750412
13	0x3e5af4c7	0.21382438
14	0x3e779a4c	0.24179953
15	0x3e0db890	0.13839936
16	0x3e6c1b72	0.23057345
17	0x3d6f01fc	0.0583515
18	0x3eae1008	0.33996606
19	0x3e8a9c37	0.27072307
20	0x3e1383cc	0.14405745
21	0x3eb85239	0.3600023
22	0x3e2136e5	0.15743597
23	0x3ea1b4ef	0.31583354
24	0x3e41436b	0.18873374
25	0x3e019011	0.12652613
26	0x3e5c6af7	0.21525179
27	0x3e4e10a1	0.20123531
28	0x3dd4c922	0.103899255
29	0x3e7d99b6	0.24765667
30	0x3e26003d	0.16211028
31	0x3e239698	0.15975416

layer2.0.conv2.weight f4 [32, 32, 3, 3]
0	0xbd705020	-0.058670163
1	0x3d0feb5f	0.035136577
2	0xbc34156b	-0.010991435
3	0x3d3eb616	0.04656037
4	0xbcfaee75	-0.030631283
5	0x3cbdac21	0.023153367
6	0x3d095c95	0.03353556
7	0xbc48c40a	-0.012253771
8	0xbba17ea2	-0.004928426
9	0x3d020985	0.03174736
10	0x3d613c1d	0.05498897
11	0xbcab228c	-0.020890497
12	0xbd3815cc	-0.044942662
13	0x3bbe8b0e	0.0058149165
14	0x3d16b9eb	0.0367984
15	0x3d5667a3	0.05234493
16	0xbb99233f	-0.004673391
17	0x3cb8380b	0.02248766
18	0x3d32f17e	0.043687336
19	0x3d47bbf3	0.048763227
20	0x3d49422d	0.049135376
21	0xbd66e9f6	-0.056375466
22	0xbd522580	-0.051305294
23	0x3b7a6fa6	0.003821352
24	0x3d097df1	0.033567373
25	0x3c40dae0	0.011770934
26	0x3cfe9473	0.031076645
27	0x3d00504c	0.031326577
28	0x3c304e50	0.010760859
29	0x3d150244	0.036379114
30	0x3b57bf09	0.0032920262
31	0xbd1469d5	-0.03623374
32	0xbc52d1cb	-0.012867401
33	0x3c17cd7a	0.009265298
34	0x3ce66b2c	0.028127275
35	0x3d2ec104	0.042664543
36	0x3c980d56	0.018561047
37	0x3d12bcda	0.035824634
38	0xbd345e5d	-0.044035304
39	0xbd5f02a7	-0.05444589
40	0xbccde803	-0.025135046
41	0x3d0f1e8b	0.034941237
42	0xbc576e40	-0.013148844
43	0xbc977e1b	-0.018492749
44	0x3d06ef73	0.0329432
45	0xbc8c620e	-0.0171366
46	0xb96b3cee	-0.00022434045
47	0x3c1cd960	0.009573311
48	0x3d5fe20e	0.054658942
49	0xbd198d34	-0.037488177
50	0x3d6a3d80	0.057187557
51	0x3c1bf106	0.009517914
52	0x3d41a132	0.04727287
53	0xbc95cd83	-0.018286472
54	0x3c9d095e	0.019169506
55	0xbc9f05c8	-0.019411936
56	0xbd157c62	-0.036495574
57	0x3d342da2	0.04398883
58	0xbc35a48f	-0.011086597
59	0xbc5a7616	-0.013333818
60	0xbbeda6d0	-0.0072525516
61	0xbce593e2	-0.028024618
62	0x3ca8aa2a	0.020588953
63	0x3baba9a1	0.005238727
64	0x3c5df851	0.013547973
65	0x3d64e4d7	0.0558823
66	0x3d20ce5b	0.039259296
67	0x3d46e830	0.048561275
68	0xbd364d7f	-0.0445075
69	0x3c8024f4	0.01564262
70	0x3b5280ca	0.0032120221
71	0x3d2614ab	0.040547054
72	0xbc4102a2	-0.011780413
73	0xbc1ffdb6	-0.009765079
74	0xbd6e6cc4	-0.058209196
75	0x3cd2d745	0.025737414
76	0xbd4bba76	-0.04973837
77	0x3c03e452	0.008050041
78	0xbd7013ab	-0.058612507
79	0x3c1dad2a	0.009623805
80	0xbc8a99b4	-0.016918994
81	0xbd27310c	-0.04081826
82	0x3d69c3b0	0.057071388
83	0x3d437673	0.047720384
84	0x3c30f088	0.010799535
85	0xbcd68232	-0.026185129
86	0x3b78107a	0.0037851618
87	0xbc7a1c28	-0.015265502
88	0x3cb8876c	0.022525512
89	0xbb1b1505	-0.0023663652
90	0xbc9fa6af	-0.01948866
91	0x3ba3183e	0.004977255
92	0x3c045b08	0.008078344
93	0x3ca1b286	0.019738447
94	0x3d1ee750	0.038794816
95	0xbbf7baaf	-0.007560096
96	0xbc8cd01d	-0.01718908
97	0x3d5e3956	0.0542539
98	0xbd177207	-0.03697398
99	0xbd49931b	-0.049212556
100	0xbcdf8499	-0.027284907
101	0xbd18f8b8	-0.03734657
102	0xbd28bfc8	-0.04119852
103	0xbd06146e	-0.032734327
104	0xbd10e4e6	-0.035374545
105	0x3c6c739f	0.014431863
106	0x3b4aec49	0.003096359
107	0x3d151a76	0.03640219
108	0x3d086619	0.033300493
109	0x3cd364d3	0.025804913
110	0xbbea7816	-0.0071554286
111	0xbd6deee2	-0.058089145
112	0x3c813637	0.015772922
113	0x3d4a3bcc	0.049373433
114	0x3d653aa8	0.055964142
115	0x3ca3d2fa	0.019998062
116	0xbd614016	-0.054992758
117	0xbd36fc0c	-0.044673964
118	0x3d39f165	0.045396227
119	0xbc433946	-0.0119155105
120	0xbc3d5740	-0.011556447
121	0x3d6dd34f	0.058062848
122	0xbce77506	-0.028254043
123	0x3d6dda9a	0.058069803
124	0xbc1417df	-0.009038894
125	0xbceda4f8	-0.029009327
126	0xbd1428bc	-0.03617166
127	0xbc147418	-0.009060882
128	0xbd472851	-0.048622433
129	0xbcd6d91b	-0.02622657
130	0xbacf8526	-0.0015832528
131	0xbd561749	-0.0522683
132	0x3c76e851	0.015070037
133	0xbc8ab254	-0.016930737
134	0x3d566038	0.052337855
135	0x3cd3d8a1	0.025860133
136	0x3d39dbc1	0.04537559
137	0x3d2c0ebc	0.04200624
138	0xbd3e9d34	-0.04653664
139	0x3d334ec7	0.0437763
140	0xbcbd02a8	-0.023072556
141	0x3aee8454	0.0018197396
142	0xbd23722f	-0.039903816
143	0xbd406963	-0.046975505
144	0x3b8bb8d0	0.0042639747
145	0xbcd11319	-0.025521802
146	0x3cf84675	0.030307034
147	0xbcc323a5	-0.023820708
148	0x3d1d4e78	0.03840491
149	0x3cab393f	0.02090132
150	0x3b926ded	0.0044686706
151	0x3cf17952	0.029476795
152	0x3c976d1f	0.01848465
153	0x3d2971d0	0.041368306
154	0x3d5b36b1	0.053518955
155	0xbb9b7961	-0.004744694
156	0x3d474976	0.048654042
157	0x3bf47836	0.0074606193
158	0xbd342cb8	-0.04398796
159	0x3c187ae7	0.009306646
160	0xbd6f2711	-0.058386866
161	0xbd653ac5	-0.05596425
162	0x3d6664e1	0.05624855
163	0x3cfbcf28	0.030738428
164	0x3d56d896	0.052452646
165	0x3d1a667b	0.03769539
166	0xbc3a0a1d	-0.01135495
167	0xbb4d9e97	-0.0031375044
168	0xbb70f0d9	-0.003676465
169	0x3b3d6be8	0.0028903428
170	0x3bad3208	0.005285505
171	0xbcc48fc7	-0.02399434
172	0xbc90eb33	-0.017690277
173	0xbd413c07	-0.047176387
174	0xbcedadf6	-0.029013615
175	0xbd0a3dbf	-0.033750292
176	0x3cd80358	0.026368782
177	0xbc5435d0	-0.012952283
178	0xbd42d2ce	-0.04756432
179	0xbba05434	-0.0048928503
180	0x3d3e0559	0.04639182
181	0xbd5e7852	-0.054313965
182	0x3d26bba5	0.040706296
183	0xbd104df9	-0.03523061
184	0x3d476aed	0.048685957
185	0x3bf76fb1	0.0075511565
186	0xbcdb2fad	-0.026756132
187	0xbbd5d4ba	-0.006525603
188	0xbbccae2d	-0.0062463493
189	0x3c81bbf9	0.015836703
190	0xbccde96a	-0.025135715
191	0x3b6e0286	0.0036317422
192	0x3a87e5b1	0.0010368136
193	0xbc5a76b4	-0.013333965
194	0xbd5d70ed	-0.054062773
195	0x3d0d5658	0.034506172
196	0xbd35dd41	-0.044400457
197	0x3c26a538	0.010171227
198	0x3c4c7c45	0.0124808
199	0xbd3520f0	-0.044220865
200	0x3cb8ecd7	0.022573872
201	0xbd5ede1f	-0.05441105
202	0xbd1cc3bb	-0.0382726
203	0xbd112473	-0.03543515
204	0x3d04fd55	0.03246816
205	0xbd5206ce	-0.05127602
206	0x3d3fc640	0.046819925
207	0x3d19c1ce	0.037538342
208	0x3d16d896	0.036827646
209	0xbd0e0582	-0.03467322
210	0x3be4cad1	0.0069821854
211	0x3d79c650	0.06098014
212	0xbd46bf19	-0.04852209
213	0x3c05b6ff	0.008161305
214	0xbcafca9d	-0.021458918
215	0xbd459502	-0.048237808
216	0xbd145aeb	-0.03621952
217	0x3c92dd27	0.01792772
218	0x3d51d243	0.05122591
219	0x3c4450b0	0.011982128
220	0x3c8e22c8	0.01735057
221	0x3d3a1cee	0.045437746
222	0x3d095baa	0.033534683
223	0x3c836a03	0.016041761
224	0xbcec5bda	-0.028852392
225	0x3c1fe0f3	0.009758222
226	0x3d3be346	0.04587104
227	0x3d1ebd82	0.038754947
228	0x3caa399f	0.020779429
229	0xbbce7b08	-0.0063012876
230	0x3d26090b	0.040535968
231	0xbd2aee14	-0.041730955
232	0xbc8f50ab	-0.01749452
233	0x3a3b34ad	0.0007141333
234	0x3ce41e54	0.027846493
235	0x3c9698d3	0.01838342
236	0xbb809dd7	-0.003925066
237	0x3d1a43b7	0.037662234
238	0xbd3ddaca	-0.04635123
239	0xbd06e107	-0.032929447
240	0x3bb26021	0.0054435884
241	0xbd48d8cb	-0.049034875
242	0x3cf36948	0.029713288
243	0x3c79fcca	0.0152580235
244	0x3d5dab90	0.054118693
245	0xbc886414	-0.016649283
246	0xbb77a727	-0.003778884
247	0xbd5ae6a3	-0.05344261
248	0x3c11061c	0.008851554
249	0x3bfc16b0	0.0076931342
250	0x3b0484e8	0.002022082
251	0x3d19fb56	0.03759321
252	0xbcd757e2	-0.026287023
253	0x3d341472	0.04396481
254	0xbd31e45b	-0.043430667
255	0x3b577a3e	0.0032879259

layer2.0.bn2.weight f4 [32]
0	0x3f7fe339	0.9995609
1	0x3f7fe444	0.9995768
2	0x3f7fae06	0.99874914
3	0x3f7fb322	0.9988271
4	0x3f7fd60f	0.99936
5	0x3f800eb8	1.0004492
6	0x3f7f1cda	0.996534
7	0x3f7f744e	0.9978684
8	0x3f7fd8a2	0.9993993
9	0x3f7fb913	0.99891776
10	0x3f7fd0d7	0.9992804
11	0x3f801492	1.0006278
12	0x3f804670	1.0021496
13	0x3f8038de	1.0017354
14	0x3f804efe	1.0024107
15	0x3f8018df	1.000759
16	0x3f802a09	1.0012828
17	0x3f805e54	1.0028787
18	0x3f7fc16f	0.9990453
19	0x3f8011c7	1.0005425
20	0x3f80093e	1.000282
21	0x3f801e53	1.0009254
22	0x3f802272	1.0010512
23	0x3f7ffd52	0.9999591
24	0x3f800f1a	1.0004609
25	0x3f801cba	1.0008767
26	0x3f803c41	1.0018388
27	0x3f7fb8a4	0.99891114
28	0x3f7fe3dc	0.9995706
29	0x3f7fda84	0.99942803
30	0x3f801e6c	1.0009284
31	0x3f7feeec	0.9997394

layer2.0.bn2.bias f4 [32]
0	0xbaad6caf	-0.0013231243
1	0xba7564e2	-0.0009361041
2	0xba260d6a	-0.00063343963
3	0xbb2ae86c	-0.0026078476
4	0x3821aea0	3.8548023e-05
5	0xb94b2e18	-0.0001937676
6	0xbb193ce0	-0.0023382232
7	0xbb7313c6	-0.0037090643
8	0xb977ecaf	-0.00023643927
9	0xbae800a6	-0.0017700389
10	0xbb1f77b8	-0.0024332833
11	0xb89ca8b4	-7.470083e-05
12	0x3a331d44	0.0006832669
13	0xb983a149	-0.00025106434
14	0xba992988	-0.0011685351
15	0x39faeb12	0.00047858857
16	0xbaa71593	-0.0012747518
17	0x3b110ad9	0.002213171
18	0xbb455261	-0.0030108916
19	0x3a32deb3	0.0006823346
20	0xba9efe86	-0.0012130297
21	0x3b3cfc2f	0.0028836837
22	0xba6dec46	-0.000907604
23	0xb8112dee	-3.461347e-05
24	0x38c6a165	9.471438e-05
25	0xb860776c	-5.3516982e-05
26	0x39a77197	0.00031937353
27	0xb8924886	-6.975331e-05
28	0xba234cf5	-0.0006229424
29	0xbaceee9a	-0.0015787662
30	0x3b1817f3	0.0023207634
31	0x3a150a3d	0.00056854245

layer2.0.bn2.running_mean f4 [32]
0	0x3e6a4656	0.22878394
1	0x3e2610db	0.16217367
2	0xbec9726a	-0.39345104
3	0xbe256a6c	-0.16153878
4	0xbc01661d	-0.007897881
5	0xbe57255e	-0.21010348
6	0xb9e9d150	-0.00044597173
7	0xbd133f0c	-0.035948798
8	0xbe561aee	-0.2090871
9	0x3d4b9978	0.049706906
10	0x3e6a66b9	0.22890748
11	0xbebd9f42	-0.37035567
12	0x3ea96e3e	0.3309192
13	0xbd7390d0	-0.059464276
14	0x3c8e43cf	0.017366318
15	0xbda52275	-0.08063213
16	0x3e66792c	0.22507161
17	0x3e0c374c	0.13692969
18	0xbe961316	-0.29311436
19	0xbe1c8118	-0.1528362
20	0x3e711ec6	0.23546895
21	0xbd898f75	-0.067168154
22	0xbd6937ad	-0.056937862
23	0xbde7defe	-0.11321829
24	0x3edd0ec6	0.43175334
25	0xbe654ef4	-0.223934
26	0x3de38ee7	0.11111241
27	0xbe582889	-0.21109213
28	0x3e8dfd95	0.2773253
29	0xbe2414a8	-0.16023505
30	0x3e27e688	0.16396534
31	0xbd684791	-0.056708876

layer2.0.bn2.running_var f4 [32]
0	0x3dca008a	0.09863384
1	0x3dd7c74a	0.10536058
2	0x3e0b889d	0.13626333
3	0x3dc6ca86	0.09706597
4	0x3dd5d6b4	0.10441342
5	0x3df45055	0.119293846
6	0x3d86dcac	0.065850586
7	0x3dd710c5	0.105012454
8	0x3e30540b	0.1721956
9	0x3e4054be	0.18782327
10	0x3e618816	0.22024569
11	0x3e392bca	0.1808311
12	0x3dea2782	0.11433317
13	0x3d8d1a3c	0.068897694
14	0x3de2a2b8	0.110661924
15	0x3da69a0b	0.0813485
16	0x3d9d3027	0.076752
17	0x3db10e10	0.0864526
18	0x3ded2680	0.11579609
19	0x3e0dd679	0.13851346
20	0x3dbcf017	0.09225481
21	0x3e55f2c7	0.20893393
22	0x3e0af610	0.13570428
23	0x3de9df01	0.11419488
24	0x3e099901	0.13437273
25	0x3dc22dfd	0.09481428
26	0x3dfc5cde	0.123224005
27	0x3e9fdb48	0.31221986
28	0x3e3e9955	0.18613179
29	0x3dc1f093	0.09469714
30	0x3d8f59a1	0.06999517
31	0x3e5aaab2	0.21354178
